{"format": "graph-model", "generatedBy": "2.15.0", "convertedBy": "TensorFlow.js Converter v4.20.0", "signature": {"inputs": {"mobilenetv2_1.00_224_input": {"name": "mobilenetv2_1_00_224_input:0", "dtype": "DT_FLOAT", "tensorShape": {"dim": [{"size": "-1"}, {"size": "224"}, {"size": "224"}, {"size": "3"}]}}}, "outputs": {"dense_19": {"name": "Identity:0", "dtype": "DT_FLOAT", "tensorShape": {"dim": [{"size": "-1"}, {"size": "20"}]}}}}, "modelTopology": {"node": [{"name": "StatefulPartitionedCall/sequential_4/mobilenetv2_1.00_224/block_1_pad/Pad/paddings", "op": "Const", "attr": {"dtype": {"type": "DT_INT32"}, "value": {"tensor": {"dtype": "DT_INT32", "tensorShape": {"dim": [{"size": "4"}, {"size": "2"}]}}}}}, {"name": "StatefulPartitionedCall/sequential_4/mobilenetv2_1.00_224/block_3_pad/Pad/paddings", "op": "Const", "attr": {"dtype": {"type": "DT_INT32"}, "value": {"tensor": {"dtype": "DT_INT32", "tensorShape": {"dim": [{"size": "4"}, {"size": "2"}]}}}}}, {"name": "StatefulPartitionedCall/sequential_4/mobilenetv2_1.00_224/block_6_pad/Pad/paddings", "op": "Const", "attr": {"dtype": {"type": "DT_INT32"}, "value": {"tensor": {"dtype": "DT_INT32", "tensorShape": {"dim": [{"size": "4"}, {"size": "2"}]}}}}}, {"name": "StatefulPartitionedCall/sequential_4/mobilenetv2_1.00_224/block_13_pad/Pad/paddings", "op": "Const", "attr": {"value": {"tensor": {"dtype": "DT_INT32", "tensorShape": {"dim": [{"size": "4"}, {"size": "2"}]}}}, "dtype": {"type": "DT_INT32"}}}, {"name": "StatefulPartitionedCall/sequential_4/global_average_pooling2d_4/Mean/reduction_indices", "op": "Const", "attr": {"dtype": {"type": "DT_INT32"}, "value": {"tensor": {"dtype": "DT_INT32", "tensorShape": {"dim": [{"size": "2"}]}}}}}, {"name": "StatefulPartitionedCall/sequential_4/dense_16/MatMul/ReadVariableOp", "op": "Const", "attr": {"dtype": {"type": "DT_FLOAT"}, "value": {"tensor": {"dtype": "DT_FLOAT", "tensorShape": {"dim": [{"size": "1280"}, {"size": "1024"}]}}}}}, {"name": "StatefulPartitionedCall/sequential_4/dense_16/BiasAdd/ReadVariableOp", "op": "Const", "attr": {"dtype": {"type": "DT_FLOAT"}, "value": {"tensor": {"dtype": "DT_FLOAT", "tensorShape": {"dim": [{"size": "1024"}]}}}}}, {"name": "StatefulPartitionedCall/sequential_4/batch_normalization_12/batchnorm/mul", "op": "Const", "attr": {"dtype": {"type": "DT_FLOAT"}, "value": {"tensor": {"dtype": "DT_FLOAT", "tensorShape": {"dim": [{"size": "1024"}]}}}}}, {"name": "StatefulPartitionedCall/sequential_4/batch_normalization_12/batchnorm/sub", "op": "Const", "attr": {"value": {"tensor": {"dtype": "DT_FLOAT", "tensorShape": {"dim": [{"size": "1024"}]}}}, "dtype": {"type": "DT_FLOAT"}}}, {"name": "StatefulPartitionedCall/sequential_4/dense_17/MatMul/ReadVariableOp", "op": "Const", "attr": {"value": {"tensor": {"dtype": "DT_FLOAT", "tensorShape": {"dim": [{"size": "1024"}, {"size": "512"}]}}}, "dtype": {"type": "DT_FLOAT"}}}, {"name": "StatefulPartitionedCall/sequential_4/dense_17/BiasAdd/ReadVariableOp", "op": "Const", "attr": {"dtype": {"type": "DT_FLOAT"}, "value": {"tensor": {"dtype": "DT_FLOAT", "tensorShape": {"dim": [{"size": "512"}]}}}}}, {"name": "StatefulPartitionedCall/sequential_4/batch_normalization_13/batchnorm/mul", "op": "Const", "attr": {"dtype": {"type": "DT_FLOAT"}, "value": {"tensor": {"dtype": "DT_FLOAT", "tensorShape": {"dim": [{"size": "512"}]}}}}}, {"name": "StatefulPartitionedCall/sequential_4/batch_normalization_13/batchnorm/sub", "op": "Const", "attr": {"value": {"tensor": {"dtype": "DT_FLOAT", "tensorShape": {"dim": [{"size": "512"}]}}}, "dtype": {"type": "DT_FLOAT"}}}, {"name": "StatefulPartitionedCall/sequential_4/dense_18/MatMul/ReadVariableOp", "op": "Const", "attr": {"dtype": {"type": "DT_FLOAT"}, "value": {"tensor": {"dtype": "DT_FLOAT", "tensorShape": {"dim": [{"size": "512"}, {"size": "256"}]}}}}}, {"name": "StatefulPartitionedCall/sequential_4/dense_18/BiasAdd/ReadVariableOp", "op": "Const", "attr": {"dtype": {"type": "DT_FLOAT"}, "value": {"tensor": {"dtype": "DT_FLOAT", "tensorShape": {"dim": [{"size": "256"}]}}}}}, {"name": "StatefulPartitionedCall/sequential_4/batch_normalization_14/batchnorm/mul", "op": "Const", "attr": {"value": {"tensor": {"dtype": "DT_FLOAT", "tensorShape": {"dim": [{"size": "256"}]}}}, "dtype": {"type": "DT_FLOAT"}}}, {"name": "StatefulPartitionedCall/sequential_4/batch_normalization_14/batchnorm/sub", "op": "Const", "attr": {"dtype": {"type": "DT_FLOAT"}, "value": {"tensor": {"dtype": "DT_FLOAT", "tensorShape": {"dim": [{"size": "256"}]}}}}}, {"name": "StatefulPartitionedCall/sequential_4/dense_19/MatMul/ReadVariableOp", "op": "Const", "attr": {"dtype": {"type": "DT_FLOAT"}, "value": {"tensor": {"dtype": "DT_FLOAT", "tensorShape": {"dim": [{"size": "256"}, {"size": "20"}]}}}}}, {"name": "StatefulPartitionedCall/sequential_4/dense_19/BiasAdd/ReadVariableOp", "op": "Const", "attr": {"value": {"tensor": {"dtype": "DT_FLOAT", "tensorShape": {"dim": [{"size": "20"}]}}}, "dtype": {"type": "DT_FLOAT"}}}, {"name": "mobilenetv2_1_00_224_input", "op": "Placeholder", "attr": {"shape": {"shape": {"dim": [{"size": "-1"}, {"size": "224"}, {"size": "224"}, {"size": "3"}]}}, "dtype": {"type": "DT_FLOAT"}}}, {"name": "StatefulPartitionedCall/sequential_4/mobilenetv2_1.00_224/Conv1/Conv2D_weights", "op": "Const", "attr": {"dtype": {"type": "DT_FLOAT"}, "value": {"tensor": {"dtype": "DT_FLOAT", "tensorShape": {"dim": [{"size": "3"}, {"size": "3"}, {"size": "3"}, {"size": "32"}]}}}}}, {"name": "StatefulPartitionedCall/sequential_4/mobilenetv2_1.00_224/Conv1/Conv2D_bn_offset", "op": "Const", "attr": {"dtype": {"type": "DT_FLOAT"}, "value": {"tensor": {"dtype": "DT_FLOAT", "tensorShape": {"dim": [{"size": "32"}]}}}}}, {"name": "StatefulPartitionedCall/sequential_4/mobilenetv2_1.00_224/block_14_project/Conv2D_weights", "op": "Const", "attr": {"value": {"tensor": {"dtype": "DT_FLOAT", "tensorShape": {"dim": [{"size": "1"}, {"size": "1"}, {"size": "960"}, {"size": "160"}]}}}, "dtype": {"type": "DT_FLOAT"}}}, {"name": "StatefulPartitionedCall/sequential_4/mobilenetv2_1.00_224/expanded_conv_depthwise/depthwise_weights", "op": "Const", "attr": {"value": {"tensor": {"dtype": "DT_FLOAT", "tensorShape": {"dim": [{"size": "3"}, {"size": "3"}, {"size": "32"}, {"size": "1"}]}}}, "dtype": {"type": "DT_FLOAT"}}}, {"name": "StatefulPartitionedCall/sequential_4/mobilenetv2_1.00_224/expanded_conv_depthwise/depthwise_bn_offset", "op": "Const", "attr": {"dtype": {"type": "DT_FLOAT"}, "value": {"tensor": {"dtype": "DT_FLOAT", "tensorShape": {"dim": [{"size": "32"}]}}}}}, {"name": "StatefulPartitionedCall/sequential_4/mobilenetv2_1.00_224/expanded_conv_project/Conv2D_weights", "op": "Const", "attr": {"value": {"tensor": {"dtype": "DT_FLOAT", "tensorShape": {"dim": [{"size": "1"}, {"size": "1"}, {"size": "32"}, {"size": "16"}]}}}, "dtype": {"type": "DT_FLOAT"}}}, {"name": "StatefulPartitionedCall/sequential_4/mobilenetv2_1.00_224/expanded_conv_project/Conv2D_bn_offset", "op": "Const", "attr": {"dtype": {"type": "DT_FLOAT"}, "value": {"tensor": {"dtype": "DT_FLOAT", "tensorShape": {"dim": [{"size": "16"}]}}}}}, {"name": "StatefulPartitionedCall/sequential_4/mobilenetv2_1.00_224/block_1_expand/Conv2D_weights", "op": "Const", "attr": {"dtype": {"type": "DT_FLOAT"}, "value": {"tensor": {"dtype": "DT_FLOAT", "tensorShape": {"dim": [{"size": "1"}, {"size": "1"}, {"size": "16"}, {"size": "96"}]}}}}}, {"name": "StatefulPartitionedCall/sequential_4/mobilenetv2_1.00_224/block_14_project/Conv2D_bn_offset", "op": "Const", "attr": {"value": {"tensor": {"dtype": "DT_FLOAT", "tensorShape": {"dim": [{"size": "160"}]}}}, "dtype": {"type": "DT_FLOAT"}}}, {"name": "StatefulPartitionedCall/sequential_4/mobilenetv2_1.00_224/block_1_expand/Conv2D_bn_offset", "op": "Const", "attr": {"value": {"tensor": {"dtype": "DT_FLOAT", "tensorShape": {"dim": [{"size": "96"}]}}}, "dtype": {"type": "DT_FLOAT"}}}, {"name": "StatefulPartitionedCall/sequential_4/mobilenetv2_1.00_224/block_1_depthwise/depthwise_weights", "op": "Const", "attr": {"value": {"tensor": {"dtype": "DT_FLOAT", "tensorShape": {"dim": [{"size": "3"}, {"size": "3"}, {"size": "96"}, {"size": "1"}]}}}, "dtype": {"type": "DT_FLOAT"}}}, {"name": "StatefulPartitionedCall/sequential_4/mobilenetv2_1.00_224/block_1_depthwise/depthwise_bn_offset", "op": "Const", "attr": {"dtype": {"type": "DT_FLOAT"}, "value": {"tensor": {"dtype": "DT_FLOAT", "tensorShape": {"dim": [{"size": "96"}]}}}}}, {"name": "StatefulPartitionedCall/sequential_4/mobilenetv2_1.00_224/block_1_project/Conv2D_weights", "op": "Const", "attr": {"value": {"tensor": {"dtype": "DT_FLOAT", "tensorShape": {"dim": [{"size": "1"}, {"size": "1"}, {"size": "96"}, {"size": "24"}]}}}, "dtype": {"type": "DT_FLOAT"}}}, {"name": "StatefulPartitionedCall/sequential_4/mobilenetv2_1.00_224/block_1_project/Conv2D_bn_offset", "op": "Const", "attr": {"value": {"tensor": {"dtype": "DT_FLOAT", "tensorShape": {"dim": [{"size": "24"}]}}}, "dtype": {"type": "DT_FLOAT"}}}, {"name": "StatefulPartitionedCall/sequential_4/mobilenetv2_1.00_224/block_2_expand/Conv2D_weights", "op": "Const", "attr": {"dtype": {"type": "DT_FLOAT"}, "value": {"tensor": {"dtype": "DT_FLOAT", "tensorShape": {"dim": [{"size": "1"}, {"size": "1"}, {"size": "24"}, {"size": "144"}]}}}}}, {"name": "StatefulPartitionedCall/sequential_4/mobilenetv2_1.00_224/block_15_expand/Conv2D_weights", "op": "Const", "attr": {"dtype": {"type": "DT_FLOAT"}, "value": {"tensor": {"dtype": "DT_FLOAT", "tensorShape": {"dim": [{"size": "1"}, {"size": "1"}, {"size": "160"}, {"size": "960"}]}}}}}, {"name": "StatefulPartitionedCall/sequential_4/mobilenetv2_1.00_224/block_2_expand/Conv2D_bn_offset", "op": "Const", "attr": {"dtype": {"type": "DT_FLOAT"}, "value": {"tensor": {"dtype": "DT_FLOAT", "tensorShape": {"dim": [{"size": "144"}]}}}}}, {"name": "StatefulPartitionedCall/sequential_4/mobilenetv2_1.00_224/block_2_depthwise/depthwise_weights", "op": "Const", "attr": {"value": {"tensor": {"dtype": "DT_FLOAT", "tensorShape": {"dim": [{"size": "3"}, {"size": "3"}, {"size": "144"}, {"size": "1"}]}}}, "dtype": {"type": "DT_FLOAT"}}}, {"name": "StatefulPartitionedCall/sequential_4/mobilenetv2_1.00_224/block_2_depthwise/depthwise_bn_offset", "op": "Const", "attr": {"value": {"tensor": {"dtype": "DT_FLOAT", "tensorShape": {"dim": [{"size": "144"}]}}}, "dtype": {"type": "DT_FLOAT"}}}, {"name": "StatefulPartitionedCall/sequential_4/mobilenetv2_1.00_224/block_2_project/Conv2D_weights", "op": "Const", "attr": {"value": {"tensor": {"dtype": "DT_FLOAT", "tensorShape": {"dim": [{"size": "1"}, {"size": "1"}, {"size": "144"}, {"size": "24"}]}}}, "dtype": {"type": "DT_FLOAT"}}}, {"name": "StatefulPartitionedCall/sequential_4/mobilenetv2_1.00_224/block_15_expand/Conv2D_bn_offset", "op": "Const", "attr": {"value": {"tensor": {"dtype": "DT_FLOAT", "tensorShape": {"dim": [{"size": "960"}]}}}, "dtype": {"type": "DT_FLOAT"}}}, {"name": "StatefulPartitionedCall/sequential_4/mobilenetv2_1.00_224/block_2_project/Conv2D_bn_offset", "op": "Const", "attr": {"value": {"tensor": {"dtype": "DT_FLOAT", "tensorShape": {"dim": [{"size": "24"}]}}}, "dtype": {"type": "DT_FLOAT"}}}, {"name": "StatefulPartitionedCall/sequential_4/mobilenetv2_1.00_224/block_3_expand/Conv2D_weights", "op": "Const", "attr": {"dtype": {"type": "DT_FLOAT"}, "value": {"tensor": {"dtype": "DT_FLOAT", "tensorShape": {"dim": [{"size": "1"}, {"size": "1"}, {"size": "24"}, {"size": "144"}]}}}}}, {"name": "StatefulPartitionedCall/sequential_4/mobilenetv2_1.00_224/block_3_expand/Conv2D_bn_offset", "op": "Const", "attr": {"value": {"tensor": {"dtype": "DT_FLOAT", "tensorShape": {"dim": [{"size": "144"}]}}}, "dtype": {"type": "DT_FLOAT"}}}, {"name": "StatefulPartitionedCall/sequential_4/mobilenetv2_1.00_224/block_3_depthwise/depthwise_weights", "op": "Const", "attr": {"value": {"tensor": {"dtype": "DT_FLOAT", "tensorShape": {"dim": [{"size": "3"}, {"size": "3"}, {"size": "144"}, {"size": "1"}]}}}, "dtype": {"type": "DT_FLOAT"}}}, {"name": "StatefulPartitionedCall/sequential_4/mobilenetv2_1.00_224/block_3_depthwise/depthwise_bn_offset", "op": "Const", "attr": {"value": {"tensor": {"dtype": "DT_FLOAT", "tensorShape": {"dim": [{"size": "144"}]}}}, "dtype": {"type": "DT_FLOAT"}}}, {"name": "StatefulPartitionedCall/sequential_4/mobilenetv2_1.00_224/block_3_project/Conv2D_weights", "op": "Const", "attr": {"dtype": {"type": "DT_FLOAT"}, "value": {"tensor": {"dtype": "DT_FLOAT", "tensorShape": {"dim": [{"size": "1"}, {"size": "1"}, {"size": "144"}, {"size": "32"}]}}}}}, {"name": "StatefulPartitionedCall/sequential_4/mobilenetv2_1.00_224/block_15_depthwise/depthwise_weights", "op": "Const", "attr": {"value": {"tensor": {"dtype": "DT_FLOAT", "tensorShape": {"dim": [{"size": "3"}, {"size": "3"}, {"size": "960"}, {"size": "1"}]}}}, "dtype": {"type": "DT_FLOAT"}}}, {"name": "StatefulPartitionedCall/sequential_4/mobilenetv2_1.00_224/block_3_project/Conv2D_bn_offset", "op": "Const", "attr": {"value": {"tensor": {"dtype": "DT_FLOAT", "tensorShape": {"dim": [{"size": "32"}]}}}, "dtype": {"type": "DT_FLOAT"}}}, {"name": "StatefulPartitionedCall/sequential_4/mobilenetv2_1.00_224/block_4_expand/Conv2D_weights", "op": "Const", "attr": {"dtype": {"type": "DT_FLOAT"}, "value": {"tensor": {"dtype": "DT_FLOAT", "tensorShape": {"dim": [{"size": "1"}, {"size": "1"}, {"size": "32"}, {"size": "192"}]}}}}}, {"name": "StatefulPartitionedCall/sequential_4/mobilenetv2_1.00_224/block_4_expand/Conv2D_bn_offset", "op": "Const", "attr": {"value": {"tensor": {"dtype": "DT_FLOAT", "tensorShape": {"dim": [{"size": "192"}]}}}, "dtype": {"type": "DT_FLOAT"}}}, {"name": "StatefulPartitionedCall/sequential_4/mobilenetv2_1.00_224/block_15_depthwise/depthwise_bn_offset", "op": "Const", "attr": {"dtype": {"type": "DT_FLOAT"}, "value": {"tensor": {"dtype": "DT_FLOAT", "tensorShape": {"dim": [{"size": "960"}]}}}}}, {"name": "StatefulPartitionedCall/sequential_4/mobilenetv2_1.00_224/block_4_depthwise/depthwise_weights", "op": "Const", "attr": {"value": {"tensor": {"dtype": "DT_FLOAT", "tensorShape": {"dim": [{"size": "3"}, {"size": "3"}, {"size": "192"}, {"size": "1"}]}}}, "dtype": {"type": "DT_FLOAT"}}}, {"name": "StatefulPartitionedCall/sequential_4/mobilenetv2_1.00_224/block_4_depthwise/depthwise_bn_offset", "op": "Const", "attr": {"value": {"tensor": {"dtype": "DT_FLOAT", "tensorShape": {"dim": [{"size": "192"}]}}}, "dtype": {"type": "DT_FLOAT"}}}, {"name": "StatefulPartitionedCall/sequential_4/mobilenetv2_1.00_224/block_4_project/Conv2D_weights", "op": "Const", "attr": {"dtype": {"type": "DT_FLOAT"}, "value": {"tensor": {"dtype": "DT_FLOAT", "tensorShape": {"dim": [{"size": "1"}, {"size": "1"}, {"size": "192"}, {"size": "32"}]}}}}}, {"name": "StatefulPartitionedCall/sequential_4/mobilenetv2_1.00_224/block_4_project/Conv2D_bn_offset", "op": "Const", "attr": {"value": {"tensor": {"dtype": "DT_FLOAT", "tensorShape": {"dim": [{"size": "32"}]}}}, "dtype": {"type": "DT_FLOAT"}}}, {"name": "StatefulPartitionedCall/sequential_4/mobilenetv2_1.00_224/block_5_expand/Conv2D_weights", "op": "Const", "attr": {"dtype": {"type": "DT_FLOAT"}, "value": {"tensor": {"dtype": "DT_FLOAT", "tensorShape": {"dim": [{"size": "1"}, {"size": "1"}, {"size": "32"}, {"size": "192"}]}}}}}, {"name": "StatefulPartitionedCall/sequential_4/mobilenetv2_1.00_224/block_5_expand/Conv2D_bn_offset", "op": "Const", "attr": {"dtype": {"type": "DT_FLOAT"}, "value": {"tensor": {"dtype": "DT_FLOAT", "tensorShape": {"dim": [{"size": "192"}]}}}}}, {"name": "StatefulPartitionedCall/sequential_4/mobilenetv2_1.00_224/block_15_project/Conv2D_weights", "op": "Const", "attr": {"value": {"tensor": {"dtype": "DT_FLOAT", "tensorShape": {"dim": [{"size": "1"}, {"size": "1"}, {"size": "960"}, {"size": "160"}]}}}, "dtype": {"type": "DT_FLOAT"}}}, {"name": "StatefulPartitionedCall/sequential_4/mobilenetv2_1.00_224/block_5_depthwise/depthwise_weights", "op": "Const", "attr": {"dtype": {"type": "DT_FLOAT"}, "value": {"tensor": {"dtype": "DT_FLOAT", "tensorShape": {"dim": [{"size": "3"}, {"size": "3"}, {"size": "192"}, {"size": "1"}]}}}}}, {"name": "StatefulPartitionedCall/sequential_4/mobilenetv2_1.00_224/block_5_depthwise/depthwise_bn_offset", "op": "Const", "attr": {"value": {"tensor": {"dtype": "DT_FLOAT", "tensorShape": {"dim": [{"size": "192"}]}}}, "dtype": {"type": "DT_FLOAT"}}}, {"name": "StatefulPartitionedCall/sequential_4/mobilenetv2_1.00_224/block_5_project/Conv2D_weights", "op": "Const", "attr": {"dtype": {"type": "DT_FLOAT"}, "value": {"tensor": {"dtype": "DT_FLOAT", "tensorShape": {"dim": [{"size": "1"}, {"size": "1"}, {"size": "192"}, {"size": "32"}]}}}}}, {"name": "StatefulPartitionedCall/sequential_4/mobilenetv2_1.00_224/block_5_project/Conv2D_bn_offset", "op": "Const", "attr": {"value": {"tensor": {"dtype": "DT_FLOAT", "tensorShape": {"dim": [{"size": "32"}]}}}, "dtype": {"type": "DT_FLOAT"}}}, {"name": "StatefulPartitionedCall/sequential_4/mobilenetv2_1.00_224/block_6_expand/Conv2D_weights", "op": "Const", "attr": {"value": {"tensor": {"dtype": "DT_FLOAT", "tensorShape": {"dim": [{"size": "1"}, {"size": "1"}, {"size": "32"}, {"size": "192"}]}}}, "dtype": {"type": "DT_FLOAT"}}}, {"name": "StatefulPartitionedCall/sequential_4/mobilenetv2_1.00_224/block_15_project/Conv2D_bn_offset", "op": "Const", "attr": {"value": {"tensor": {"dtype": "DT_FLOAT", "tensorShape": {"dim": [{"size": "160"}]}}}, "dtype": {"type": "DT_FLOAT"}}}, {"name": "StatefulPartitionedCall/sequential_4/mobilenetv2_1.00_224/block_6_expand/Conv2D_bn_offset", "op": "Const", "attr": {"value": {"tensor": {"dtype": "DT_FLOAT", "tensorShape": {"dim": [{"size": "192"}]}}}, "dtype": {"type": "DT_FLOAT"}}}, {"name": "StatefulPartitionedCall/sequential_4/mobilenetv2_1.00_224/block_6_depthwise/depthwise_weights", "op": "Const", "attr": {"value": {"tensor": {"dtype": "DT_FLOAT", "tensorShape": {"dim": [{"size": "3"}, {"size": "3"}, {"size": "192"}, {"size": "1"}]}}}, "dtype": {"type": "DT_FLOAT"}}}, {"name": "StatefulPartitionedCall/sequential_4/mobilenetv2_1.00_224/block_6_depthwise/depthwise_bn_offset", "op": "Const", "attr": {"dtype": {"type": "DT_FLOAT"}, "value": {"tensor": {"dtype": "DT_FLOAT", "tensorShape": {"dim": [{"size": "192"}]}}}}}, {"name": "StatefulPartitionedCall/sequential_4/mobilenetv2_1.00_224/block_6_project/Conv2D_weights", "op": "Const", "attr": {"dtype": {"type": "DT_FLOAT"}, "value": {"tensor": {"dtype": "DT_FLOAT", "tensorShape": {"dim": [{"size": "1"}, {"size": "1"}, {"size": "192"}, {"size": "64"}]}}}}}, {"name": "StatefulPartitionedCall/sequential_4/mobilenetv2_1.00_224/block_6_project/Conv2D_bn_offset", "op": "Const", "attr": {"dtype": {"type": "DT_FLOAT"}, "value": {"tensor": {"dtype": "DT_FLOAT", "tensorShape": {"dim": [{"size": "64"}]}}}}}, {"name": "StatefulPartitionedCall/sequential_4/mobilenetv2_1.00_224/block_7_expand/Conv2D_weights", "op": "Const", "attr": {"value": {"tensor": {"dtype": "DT_FLOAT", "tensorShape": {"dim": [{"size": "1"}, {"size": "1"}, {"size": "64"}, {"size": "384"}]}}}, "dtype": {"type": "DT_FLOAT"}}}, {"name": "StatefulPartitionedCall/sequential_4/mobilenetv2_1.00_224/block_16_expand/Conv2D_weights", "op": "Const", "attr": {"dtype": {"type": "DT_FLOAT"}, "value": {"tensor": {"dtype": "DT_FLOAT", "tensorShape": {"dim": [{"size": "1"}, {"size": "1"}, {"size": "160"}, {"size": "960"}]}}}}}, {"name": "StatefulPartitionedCall/sequential_4/mobilenetv2_1.00_224/block_7_expand/Conv2D_bn_offset", "op": "Const", "attr": {"value": {"tensor": {"dtype": "DT_FLOAT", "tensorShape": {"dim": [{"size": "384"}]}}}, "dtype": {"type": "DT_FLOAT"}}}, {"name": "StatefulPartitionedCall/sequential_4/mobilenetv2_1.00_224/block_7_depthwise/depthwise_weights", "op": "Const", "attr": {"dtype": {"type": "DT_FLOAT"}, "value": {"tensor": {"dtype": "DT_FLOAT", "tensorShape": {"dim": [{"size": "3"}, {"size": "3"}, {"size": "384"}, {"size": "1"}]}}}}}, {"name": "StatefulPartitionedCall/sequential_4/mobilenetv2_1.00_224/block_7_depthwise/depthwise_bn_offset", "op": "Const", "attr": {"value": {"tensor": {"dtype": "DT_FLOAT", "tensorShape": {"dim": [{"size": "384"}]}}}, "dtype": {"type": "DT_FLOAT"}}}, {"name": "StatefulPartitionedCall/sequential_4/mobilenetv2_1.00_224/block_7_project/Conv2D_weights", "op": "Const", "attr": {"value": {"tensor": {"dtype": "DT_FLOAT", "tensorShape": {"dim": [{"size": "1"}, {"size": "1"}, {"size": "384"}, {"size": "64"}]}}}, "dtype": {"type": "DT_FLOAT"}}}, {"name": "StatefulPartitionedCall/sequential_4/mobilenetv2_1.00_224/block_16_expand/Conv2D_bn_offset", "op": "Const", "attr": {"value": {"tensor": {"dtype": "DT_FLOAT", "tensorShape": {"dim": [{"size": "960"}]}}}, "dtype": {"type": "DT_FLOAT"}}}, {"name": "StatefulPartitionedCall/sequential_4/mobilenetv2_1.00_224/block_7_project/Conv2D_bn_offset", "op": "Const", "attr": {"dtype": {"type": "DT_FLOAT"}, "value": {"tensor": {"dtype": "DT_FLOAT", "tensorShape": {"dim": [{"size": "64"}]}}}}}, {"name": "StatefulPartitionedCall/sequential_4/mobilenetv2_1.00_224/block_8_expand/Conv2D_weights", "op": "Const", "attr": {"dtype": {"type": "DT_FLOAT"}, "value": {"tensor": {"dtype": "DT_FLOAT", "tensorShape": {"dim": [{"size": "1"}, {"size": "1"}, {"size": "64"}, {"size": "384"}]}}}}}, {"name": "StatefulPartitionedCall/sequential_4/mobilenetv2_1.00_224/block_8_expand/Conv2D_bn_offset", "op": "Const", "attr": {"dtype": {"type": "DT_FLOAT"}, "value": {"tensor": {"dtype": "DT_FLOAT", "tensorShape": {"dim": [{"size": "384"}]}}}}}, {"name": "StatefulPartitionedCall/sequential_4/mobilenetv2_1.00_224/block_8_depthwise/depthwise_weights", "op": "Const", "attr": {"dtype": {"type": "DT_FLOAT"}, "value": {"tensor": {"dtype": "DT_FLOAT", "tensorShape": {"dim": [{"size": "3"}, {"size": "3"}, {"size": "384"}, {"size": "1"}]}}}}}, {"name": "StatefulPartitionedCall/sequential_4/mobilenetv2_1.00_224/block_8_depthwise/depthwise_bn_offset", "op": "Const", "attr": {"dtype": {"type": "DT_FLOAT"}, "value": {"tensor": {"dtype": "DT_FLOAT", "tensorShape": {"dim": [{"size": "384"}]}}}}}, {"name": "StatefulPartitionedCall/sequential_4/mobilenetv2_1.00_224/block_8_project/Conv2D_weights", "op": "Const", "attr": {"dtype": {"type": "DT_FLOAT"}, "value": {"tensor": {"dtype": "DT_FLOAT", "tensorShape": {"dim": [{"size": "1"}, {"size": "1"}, {"size": "384"}, {"size": "64"}]}}}}}, {"name": "StatefulPartitionedCall/sequential_4/mobilenetv2_1.00_224/block_16_depthwise/depthwise_weights", "op": "Const", "attr": {"dtype": {"type": "DT_FLOAT"}, "value": {"tensor": {"dtype": "DT_FLOAT", "tensorShape": {"dim": [{"size": "3"}, {"size": "3"}, {"size": "960"}, {"size": "1"}]}}}}}, {"name": "StatefulPartitionedCall/sequential_4/mobilenetv2_1.00_224/block_8_project/Conv2D_bn_offset", "op": "Const", "attr": {"dtype": {"type": "DT_FLOAT"}, "value": {"tensor": {"dtype": "DT_FLOAT", "tensorShape": {"dim": [{"size": "64"}]}}}}}, {"name": "StatefulPartitionedCall/sequential_4/mobilenetv2_1.00_224/block_9_expand/Conv2D_weights", "op": "Const", "attr": {"value": {"tensor": {"dtype": "DT_FLOAT", "tensorShape": {"dim": [{"size": "1"}, {"size": "1"}, {"size": "64"}, {"size": "384"}]}}}, "dtype": {"type": "DT_FLOAT"}}}, {"name": "StatefulPartitionedCall/sequential_4/mobilenetv2_1.00_224/block_9_expand/Conv2D_bn_offset", "op": "Const", "attr": {"dtype": {"type": "DT_FLOAT"}, "value": {"tensor": {"dtype": "DT_FLOAT", "tensorShape": {"dim": [{"size": "384"}]}}}}}, {"name": "StatefulPartitionedCall/sequential_4/mobilenetv2_1.00_224/block_16_depthwise/depthwise_bn_offset", "op": "Const", "attr": {"dtype": {"type": "DT_FLOAT"}, "value": {"tensor": {"dtype": "DT_FLOAT", "tensorShape": {"dim": [{"size": "960"}]}}}}}, {"name": "StatefulPartitionedCall/sequential_4/mobilenetv2_1.00_224/block_9_depthwise/depthwise_weights", "op": "Const", "attr": {"value": {"tensor": {"dtype": "DT_FLOAT", "tensorShape": {"dim": [{"size": "3"}, {"size": "3"}, {"size": "384"}, {"size": "1"}]}}}, "dtype": {"type": "DT_FLOAT"}}}, {"name": "StatefulPartitionedCall/sequential_4/mobilenetv2_1.00_224/block_9_depthwise/depthwise_bn_offset", "op": "Const", "attr": {"value": {"tensor": {"dtype": "DT_FLOAT", "tensorShape": {"dim": [{"size": "384"}]}}}, "dtype": {"type": "DT_FLOAT"}}}, {"name": "StatefulPartitionedCall/sequential_4/mobilenetv2_1.00_224/block_9_project/Conv2D_weights", "op": "Const", "attr": {"value": {"tensor": {"dtype": "DT_FLOAT", "tensorShape": {"dim": [{"size": "1"}, {"size": "1"}, {"size": "384"}, {"size": "64"}]}}}, "dtype": {"type": "DT_FLOAT"}}}, {"name": "StatefulPartitionedCall/sequential_4/mobilenetv2_1.00_224/block_9_project/Conv2D_bn_offset", "op": "Const", "attr": {"dtype": {"type": "DT_FLOAT"}, "value": {"tensor": {"dtype": "DT_FLOAT", "tensorShape": {"dim": [{"size": "64"}]}}}}}, {"name": "StatefulPartitionedCall/sequential_4/mobilenetv2_1.00_224/block_10_expand/Conv2D_weights", "op": "Const", "attr": {"dtype": {"type": "DT_FLOAT"}, "value": {"tensor": {"dtype": "DT_FLOAT", "tensorShape": {"dim": [{"size": "1"}, {"size": "1"}, {"size": "64"}, {"size": "384"}]}}}}}, {"name": "StatefulPartitionedCall/sequential_4/mobilenetv2_1.00_224/block_10_expand/Conv2D_bn_offset", "op": "Const", "attr": {"value": {"tensor": {"dtype": "DT_FLOAT", "tensorShape": {"dim": [{"size": "384"}]}}}, "dtype": {"type": "DT_FLOAT"}}}, {"name": "StatefulPartitionedCall/sequential_4/mobilenetv2_1.00_224/block_16_project/Conv2D_weights", "op": "Const", "attr": {"dtype": {"type": "DT_FLOAT"}, "value": {"tensor": {"dtype": "DT_FLOAT", "tensorShape": {"dim": [{"size": "1"}, {"size": "1"}, {"size": "960"}, {"size": "320"}]}}}}}, {"name": "StatefulPartitionedCall/sequential_4/mobilenetv2_1.00_224/block_10_depthwise/depthwise_weights", "op": "Const", "attr": {"value": {"tensor": {"dtype": "DT_FLOAT", "tensorShape": {"dim": [{"size": "3"}, {"size": "3"}, {"size": "384"}, {"size": "1"}]}}}, "dtype": {"type": "DT_FLOAT"}}}, {"name": "StatefulPartitionedCall/sequential_4/mobilenetv2_1.00_224/block_10_depthwise/depthwise_bn_offset", "op": "Const", "attr": {"dtype": {"type": "DT_FLOAT"}, "value": {"tensor": {"dtype": "DT_FLOAT", "tensorShape": {"dim": [{"size": "384"}]}}}}}, {"name": "StatefulPartitionedCall/sequential_4/mobilenetv2_1.00_224/block_10_project/Conv2D_weights", "op": "Const", "attr": {"value": {"tensor": {"dtype": "DT_FLOAT", "tensorShape": {"dim": [{"size": "1"}, {"size": "1"}, {"size": "384"}, {"size": "96"}]}}}, "dtype": {"type": "DT_FLOAT"}}}, {"name": "StatefulPartitionedCall/sequential_4/mobilenetv2_1.00_224/block_10_project/Conv2D_bn_offset", "op": "Const", "attr": {"value": {"tensor": {"dtype": "DT_FLOAT", "tensorShape": {"dim": [{"size": "96"}]}}}, "dtype": {"type": "DT_FLOAT"}}}, {"name": "StatefulPartitionedCall/sequential_4/mobilenetv2_1.00_224/block_11_expand/Conv2D_weights", "op": "Const", "attr": {"value": {"tensor": {"dtype": "DT_FLOAT", "tensorShape": {"dim": [{"size": "1"}, {"size": "1"}, {"size": "96"}, {"size": "576"}]}}}, "dtype": {"type": "DT_FLOAT"}}}, {"name": "StatefulPartitionedCall/sequential_4/mobilenetv2_1.00_224/block_16_project/Conv2D_bn_offset", "op": "Const", "attr": {"value": {"tensor": {"dtype": "DT_FLOAT", "tensorShape": {"dim": [{"size": "320"}]}}}, "dtype": {"type": "DT_FLOAT"}}}, {"name": "StatefulPartitionedCall/sequential_4/mobilenetv2_1.00_224/block_11_expand/Conv2D_bn_offset", "op": "Const", "attr": {"value": {"tensor": {"dtype": "DT_FLOAT", "tensorShape": {"dim": [{"size": "576"}]}}}, "dtype": {"type": "DT_FLOAT"}}}, {"name": "StatefulPartitionedCall/sequential_4/mobilenetv2_1.00_224/block_11_depthwise/depthwise_weights", "op": "Const", "attr": {"value": {"tensor": {"dtype": "DT_FLOAT", "tensorShape": {"dim": [{"size": "3"}, {"size": "3"}, {"size": "576"}, {"size": "1"}]}}}, "dtype": {"type": "DT_FLOAT"}}}, {"name": "StatefulPartitionedCall/sequential_4/mobilenetv2_1.00_224/block_11_depthwise/depthwise_bn_offset", "op": "Const", "attr": {"value": {"tensor": {"dtype": "DT_FLOAT", "tensorShape": {"dim": [{"size": "576"}]}}}, "dtype": {"type": "DT_FLOAT"}}}, {"name": "StatefulPartitionedCall/sequential_4/mobilenetv2_1.00_224/block_11_project/Conv2D_weights", "op": "Const", "attr": {"value": {"tensor": {"dtype": "DT_FLOAT", "tensorShape": {"dim": [{"size": "1"}, {"size": "1"}, {"size": "576"}, {"size": "96"}]}}}, "dtype": {"type": "DT_FLOAT"}}}, {"name": "StatefulPartitionedCall/sequential_4/mobilenetv2_1.00_224/Conv_1/Conv2D_weights", "op": "Const", "attr": {"value": {"tensor": {"dtype": "DT_FLOAT", "tensorShape": {"dim": [{"size": "1"}, {"size": "1"}, {"size": "320"}, {"size": "1280"}]}}}, "dtype": {"type": "DT_FLOAT"}}}, {"name": "StatefulPartitionedCall/sequential_4/mobilenetv2_1.00_224/block_11_project/Conv2D_bn_offset", "op": "Const", "attr": {"value": {"tensor": {"dtype": "DT_FLOAT", "tensorShape": {"dim": [{"size": "96"}]}}}, "dtype": {"type": "DT_FLOAT"}}}, {"name": "StatefulPartitionedCall/sequential_4/mobilenetv2_1.00_224/block_12_expand/Conv2D_weights", "op": "Const", "attr": {"dtype": {"type": "DT_FLOAT"}, "value": {"tensor": {"dtype": "DT_FLOAT", "tensorShape": {"dim": [{"size": "1"}, {"size": "1"}, {"size": "96"}, {"size": "576"}]}}}}}, {"name": "StatefulPartitionedCall/sequential_4/mobilenetv2_1.00_224/block_12_expand/Conv2D_bn_offset", "op": "Const", "attr": {"value": {"tensor": {"dtype": "DT_FLOAT", "tensorShape": {"dim": [{"size": "576"}]}}}, "dtype": {"type": "DT_FLOAT"}}}, {"name": "StatefulPartitionedCall/sequential_4/mobilenetv2_1.00_224/Conv_1/Conv2D_bn_offset", "op": "Const", "attr": {"value": {"tensor": {"dtype": "DT_FLOAT", "tensorShape": {"dim": [{"size": "1280"}]}}}, "dtype": {"type": "DT_FLOAT"}}}, {"name": "StatefulPartitionedCall/sequential_4/mobilenetv2_1.00_224/block_12_depthwise/depthwise_weights", "op": "Const", "attr": {"value": {"tensor": {"dtype": "DT_FLOAT", "tensorShape": {"dim": [{"size": "3"}, {"size": "3"}, {"size": "576"}, {"size": "1"}]}}}, "dtype": {"type": "DT_FLOAT"}}}, {"name": "StatefulPartitionedCall/sequential_4/mobilenetv2_1.00_224/block_12_depthwise/depthwise_bn_offset", "op": "Const", "attr": {"value": {"tensor": {"dtype": "DT_FLOAT", "tensorShape": {"dim": [{"size": "576"}]}}}, "dtype": {"type": "DT_FLOAT"}}}, {"name": "StatefulPartitionedCall/sequential_4/mobilenetv2_1.00_224/block_12_project/Conv2D_weights", "op": "Const", "attr": {"dtype": {"type": "DT_FLOAT"}, "value": {"tensor": {"dtype": "DT_FLOAT", "tensorShape": {"dim": [{"size": "1"}, {"size": "1"}, {"size": "576"}, {"size": "96"}]}}}}}, {"name": "StatefulPartitionedCall/sequential_4/mobilenetv2_1.00_224/block_12_project/Conv2D_bn_offset", "op": "Const", "attr": {"dtype": {"type": "DT_FLOAT"}, "value": {"tensor": {"dtype": "DT_FLOAT", "tensorShape": {"dim": [{"size": "96"}]}}}}}, {"name": "StatefulPartitionedCall/sequential_4/mobilenetv2_1.00_224/block_13_expand/Conv2D_weights", "op": "Const", "attr": {"value": {"tensor": {"dtype": "DT_FLOAT", "tensorShape": {"dim": [{"size": "1"}, {"size": "1"}, {"size": "96"}, {"size": "576"}]}}}, "dtype": {"type": "DT_FLOAT"}}}, {"name": "StatefulPartitionedCall/sequential_4/mobilenetv2_1.00_224/block_13_expand/Conv2D_bn_offset", "op": "Const", "attr": {"value": {"tensor": {"dtype": "DT_FLOAT", "tensorShape": {"dim": [{"size": "576"}]}}}, "dtype": {"type": "DT_FLOAT"}}}, {"name": "StatefulPartitionedCall/sequential_4/mobilenetv2_1.00_224/block_13_depthwise/depthwise_weights", "op": "Const", "attr": {"value": {"tensor": {"dtype": "DT_FLOAT", "tensorShape": {"dim": [{"size": "3"}, {"size": "3"}, {"size": "576"}, {"size": "1"}]}}}, "dtype": {"type": "DT_FLOAT"}}}, {"name": "StatefulPartitionedCall/sequential_4/mobilenetv2_1.00_224/block_13_depthwise/depthwise_bn_offset", "op": "Const", "attr": {"dtype": {"type": "DT_FLOAT"}, "value": {"tensor": {"dtype": "DT_FLOAT", "tensorShape": {"dim": [{"size": "576"}]}}}}}, {"name": "StatefulPartitionedCall/sequential_4/mobilenetv2_1.00_224/block_13_project/Conv2D_weights", "op": "Const", "attr": {"dtype": {"type": "DT_FLOAT"}, "value": {"tensor": {"dtype": "DT_FLOAT", "tensorShape": {"dim": [{"size": "1"}, {"size": "1"}, {"size": "576"}, {"size": "160"}]}}}}}, {"name": "StatefulPartitionedCall/sequential_4/mobilenetv2_1.00_224/block_13_project/Conv2D_bn_offset", "op": "Const", "attr": {"value": {"tensor": {"dtype": "DT_FLOAT", "tensorShape": {"dim": [{"size": "160"}]}}}, "dtype": {"type": "DT_FLOAT"}}}, {"name": "StatefulPartitionedCall/sequential_4/mobilenetv2_1.00_224/block_14_expand/Conv2D_weights", "op": "Const", "attr": {"value": {"tensor": {"dtype": "DT_FLOAT", "tensorShape": {"dim": [{"size": "1"}, {"size": "1"}, {"size": "160"}, {"size": "960"}]}}}, "dtype": {"type": "DT_FLOAT"}}}, {"name": "StatefulPartitionedCall/sequential_4/mobilenetv2_1.00_224/block_14_expand/Conv2D_bn_offset", "op": "Const", "attr": {"dtype": {"type": "DT_FLOAT"}, "value": {"tensor": {"dtype": "DT_FLOAT", "tensorShape": {"dim": [{"size": "960"}]}}}}}, {"name": "StatefulPartitionedCall/sequential_4/mobilenetv2_1.00_224/block_14_depthwise/depthwise_weights", "op": "Const", "attr": {"dtype": {"type": "DT_FLOAT"}, "value": {"tensor": {"dtype": "DT_FLOAT", "tensorShape": {"dim": [{"size": "3"}, {"size": "3"}, {"size": "960"}, {"size": "1"}]}}}}}, {"name": "StatefulPartitionedCall/sequential_4/mobilenetv2_1.00_224/block_14_depthwise/depthwise_bn_offset", "op": "Const", "attr": {"value": {"tensor": {"dtype": "DT_FLOAT", "tensorShape": {"dim": [{"size": "960"}]}}}, "dtype": {"type": "DT_FLOAT"}}}, {"name": "StatefulPartitionedCall/sequential_4/mobilenetv2_1.00_224/Conv1_relu/Relu6", "op": "_FusedConv2D", "input": ["mobilenetv2_1_00_224_input", "StatefulPartitionedCall/sequential_4/mobilenetv2_1.00_224/Conv1/Conv2D_weights", "StatefulPartitionedCall/sequential_4/mobilenetv2_1.00_224/Conv1/Conv2D_bn_offset"], "device": "/device:CPU:0", "attr": {"fused_ops": {"list": {"s": ["Qmlhc0FkZA==", "UmVsdTY="]}}, "filter_format": {"s": "SFdJTw=="}, "dilations": {"list": {"i": ["1", "1", "1", "1"]}}, "use_cudnn_on_gpu": {"b": true}, "epsilon": {"f": 0.0}, "num_host_args": {"i": "0"}, "explicit_paddings": {"list": {}}, "strides": {"list": {"i": ["1", "2", "2", "1"]}}, "padding": {"s": "U0FNRQ=="}, "TArgs": {"list": {"type": ["DT_FLOAT"]}}, "num_args": {"i": "1"}, "data_format": {"s": "TkhXQw=="}, "T": {"type": "DT_FLOAT"}, "leakyrelu_alpha": {"f": 0.2}}}, {"name": "StatefulPartitionedCall/sequential_4/mobilenetv2_1.00_224/expanded_conv_depthwise/depthwise", "op": "FusedDepthwiseConv2dNative", "input": ["StatefulPartitionedCall/sequential_4/mobilenetv2_1.00_224/Conv1_relu/Relu6", "StatefulPartitionedCall/sequential_4/mobilenetv2_1.00_224/expanded_conv_depthwise/depthwise_weights", "StatefulPartitionedCall/sequential_4/mobilenetv2_1.00_224/expanded_conv_depthwise/depthwise_bn_offset"], "attr": {"padding": {"s": "U0FNRQ=="}, "fused_ops": {"list": {"s": ["Qmlhc0FkZA==", "UmVsdTY="]}}, "num_args": {"i": "1"}, "explicit_paddings": {"list": {}}, "data_format": {"s": "TkhXQw=="}, "T": {"type": "DT_FLOAT"}, "dilations": {"list": {"i": ["1", "1", "1", "1"]}}, "strides": {"list": {"i": ["1", "1", "1", "1"]}}}}, {"name": "StatefulPartitionedCall/sequential_4/mobilenetv2_1.00_224/expanded_conv_project_BN/FusedBatchNormV3", "op": "_FusedConv2D", "input": ["StatefulPartitionedCall/sequential_4/mobilenetv2_1.00_224/expanded_conv_depthwise/depthwise", "StatefulPartitionedCall/sequential_4/mobilenetv2_1.00_224/expanded_conv_project/Conv2D_weights", "StatefulPartitionedCall/sequential_4/mobilenetv2_1.00_224/expanded_conv_project/Conv2D_bn_offset"], "device": "/device:CPU:0", "attr": {"strides": {"list": {"i": ["1", "1", "1", "1"]}}, "num_args": {"i": "1"}, "fused_ops": {"list": {"s": ["Qmlhc0FkZA=="]}}, "data_format": {"s": "TkhXQw=="}, "explicit_paddings": {"list": {}}, "use_cudnn_on_gpu": {"b": true}, "TArgs": {"list": {"type": ["DT_FLOAT"]}}, "epsilon": {"f": 0.0}, "leakyrelu_alpha": {"f": 0.2}, "T": {"type": "DT_FLOAT"}, "num_host_args": {"i": "0"}, "dilations": {"list": {"i": ["1", "1", "1", "1"]}}, "padding": {"s": "U0FNRQ=="}, "filter_format": {"s": "SFdJTw=="}}}, {"name": "StatefulPartitionedCall/sequential_4/mobilenetv2_1.00_224/block_1_expand_relu/Relu6", "op": "_FusedConv2D", "input": ["StatefulPartitionedCall/sequential_4/mobilenetv2_1.00_224/expanded_conv_project_BN/FusedBatchNormV3", "StatefulPartitionedCall/sequential_4/mobilenetv2_1.00_224/block_1_expand/Conv2D_weights", "StatefulPartitionedCall/sequential_4/mobilenetv2_1.00_224/block_1_expand/Conv2D_bn_offset"], "device": "/device:CPU:0", "attr": {"dilations": {"list": {"i": ["1", "1", "1", "1"]}}, "padding": {"s": "U0FNRQ=="}, "T": {"type": "DT_FLOAT"}, "filter_format": {"s": "SFdJTw=="}, "num_host_args": {"i": "0"}, "num_args": {"i": "1"}, "TArgs": {"list": {"type": ["DT_FLOAT"]}}, "leakyrelu_alpha": {"f": 0.2}, "strides": {"list": {"i": ["1", "1", "1", "1"]}}, "fused_ops": {"list": {"s": ["Qmlhc0FkZA==", "UmVsdTY="]}}, "explicit_paddings": {"list": {}}, "use_cudnn_on_gpu": {"b": true}, "epsilon": {"f": 0.0}, "data_format": {"s": "TkhXQw=="}}}, {"name": "StatefulPartitionedCall/sequential_4/mobilenetv2_1.00_224/block_1_pad/Pad", "op": "Pad", "input": ["StatefulPartitionedCall/sequential_4/mobilenetv2_1.00_224/block_1_expand_relu/Relu6", "StatefulPartitionedCall/sequential_4/mobilenetv2_1.00_224/block_1_pad/Pad/paddings"], "attr": {"T": {"type": "DT_FLOAT"}, "Tpaddings": {"type": "DT_INT32"}}}, {"name": "StatefulPartitionedCall/sequential_4/mobilenetv2_1.00_224/block_1_depthwise/depthwise", "op": "FusedDepthwiseConv2dNative", "input": ["StatefulPartitionedCall/sequential_4/mobilenetv2_1.00_224/block_1_pad/Pad", "StatefulPartitionedCall/sequential_4/mobilenetv2_1.00_224/block_1_depthwise/depthwise_weights", "StatefulPartitionedCall/sequential_4/mobilenetv2_1.00_224/block_1_depthwise/depthwise_bn_offset"], "attr": {"strides": {"list": {"i": ["1", "2", "2", "1"]}}, "dilations": {"list": {"i": ["1", "1", "1", "1"]}}, "padding": {"s": "VkFMSUQ="}, "data_format": {"s": "TkhXQw=="}, "explicit_paddings": {"list": {}}, "fused_ops": {"list": {"s": ["Qmlhc0FkZA==", "UmVsdTY="]}}, "num_args": {"i": "1"}, "T": {"type": "DT_FLOAT"}}}, {"name": "StatefulPartitionedCall/sequential_4/mobilenetv2_1.00_224/block_1_project_BN/FusedBatchNormV3", "op": "_FusedConv2D", "input": ["StatefulPartitionedCall/sequential_4/mobilenetv2_1.00_224/block_1_depthwise/depthwise", "StatefulPartitionedCall/sequential_4/mobilenetv2_1.00_224/block_1_project/Conv2D_weights", "StatefulPartitionedCall/sequential_4/mobilenetv2_1.00_224/block_1_project/Conv2D_bn_offset"], "device": "/device:CPU:0", "attr": {"T": {"type": "DT_FLOAT"}, "padding": {"s": "U0FNRQ=="}, "filter_format": {"s": "SFdJTw=="}, "use_cudnn_on_gpu": {"b": true}, "strides": {"list": {"i": ["1", "1", "1", "1"]}}, "dilations": {"list": {"i": ["1", "1", "1", "1"]}}, "leakyrelu_alpha": {"f": 0.2}, "fused_ops": {"list": {"s": ["Qmlhc0FkZA=="]}}, "data_format": {"s": "TkhXQw=="}, "explicit_paddings": {"list": {}}, "TArgs": {"list": {"type": ["DT_FLOAT"]}}, "num_host_args": {"i": "0"}, "num_args": {"i": "1"}, "epsilon": {"f": 0.0}}}, {"name": "StatefulPartitionedCall/sequential_4/mobilenetv2_1.00_224/block_2_expand_relu/Relu6", "op": "_FusedConv2D", "input": ["StatefulPartitionedCall/sequential_4/mobilenetv2_1.00_224/block_1_project_BN/FusedBatchNormV3", "StatefulPartitionedCall/sequential_4/mobilenetv2_1.00_224/block_2_expand/Conv2D_weights", "StatefulPartitionedCall/sequential_4/mobilenetv2_1.00_224/block_2_expand/Conv2D_bn_offset"], "device": "/device:CPU:0", "attr": {"explicit_paddings": {"list": {}}, "num_args": {"i": "1"}, "epsilon": {"f": 0.0}, "data_format": {"s": "TkhXQw=="}, "filter_format": {"s": "SFdJTw=="}, "leakyrelu_alpha": {"f": 0.2}, "dilations": {"list": {"i": ["1", "1", "1", "1"]}}, "num_host_args": {"i": "0"}, "padding": {"s": "U0FNRQ=="}, "TArgs": {"list": {"type": ["DT_FLOAT"]}}, "strides": {"list": {"i": ["1", "1", "1", "1"]}}, "fused_ops": {"list": {"s": ["Qmlhc0FkZA==", "UmVsdTY="]}}, "use_cudnn_on_gpu": {"b": true}, "T": {"type": "DT_FLOAT"}}}, {"name": "StatefulPartitionedCall/sequential_4/mobilenetv2_1.00_224/block_2_depthwise/depthwise", "op": "FusedDepthwiseConv2dNative", "input": ["StatefulPartitionedCall/sequential_4/mobilenetv2_1.00_224/block_2_expand_relu/Relu6", "StatefulPartitionedCall/sequential_4/mobilenetv2_1.00_224/block_2_depthwise/depthwise_weights", "StatefulPartitionedCall/sequential_4/mobilenetv2_1.00_224/block_2_depthwise/depthwise_bn_offset"], "attr": {"padding": {"s": "U0FNRQ=="}, "strides": {"list": {"i": ["1", "1", "1", "1"]}}, "data_format": {"s": "TkhXQw=="}, "num_args": {"i": "1"}, "explicit_paddings": {"list": {}}, "dilations": {"list": {"i": ["1", "1", "1", "1"]}}, "fused_ops": {"list": {"s": ["Qmlhc0FkZA==", "UmVsdTY="]}}, "T": {"type": "DT_FLOAT"}}}, {"name": "StatefulPartitionedCall/sequential_4/mobilenetv2_1.00_224/block_2_project_BN/FusedBatchNormV3", "op": "_FusedConv2D", "input": ["StatefulPartitionedCall/sequential_4/mobilenetv2_1.00_224/block_2_depthwise/depthwise", "StatefulPartitionedCall/sequential_4/mobilenetv2_1.00_224/block_2_project/Conv2D_weights", "StatefulPartitionedCall/sequential_4/mobilenetv2_1.00_224/block_2_project/Conv2D_bn_offset"], "device": "/device:CPU:0", "attr": {"data_format": {"s": "TkhXQw=="}, "TArgs": {"list": {"type": ["DT_FLOAT"]}}, "padding": {"s": "U0FNRQ=="}, "filter_format": {"s": "SFdJTw=="}, "fused_ops": {"list": {"s": ["Qmlhc0FkZA=="]}}, "leakyrelu_alpha": {"f": 0.2}, "dilations": {"list": {"i": ["1", "1", "1", "1"]}}, "T": {"type": "DT_FLOAT"}, "strides": {"list": {"i": ["1", "1", "1", "1"]}}, "use_cudnn_on_gpu": {"b": true}, "epsilon": {"f": 0.0}, "num_args": {"i": "1"}, "explicit_paddings": {"list": {}}, "num_host_args": {"i": "0"}}}, {"name": "StatefulPartitionedCall/sequential_4/mobilenetv2_1.00_224/block_2_add/add", "op": "AddV2", "input": ["StatefulPartitionedCall/sequential_4/mobilenetv2_1.00_224/block_1_project_BN/FusedBatchNormV3", "StatefulPartitionedCall/sequential_4/mobilenetv2_1.00_224/block_2_project_BN/FusedBatchNormV3"], "attr": {"T": {"type": "DT_FLOAT"}}}, {"name": "StatefulPartitionedCall/sequential_4/mobilenetv2_1.00_224/block_3_expand_relu/Relu6", "op": "_FusedConv2D", "input": ["StatefulPartitionedCall/sequential_4/mobilenetv2_1.00_224/block_2_add/add", "StatefulPartitionedCall/sequential_4/mobilenetv2_1.00_224/block_3_expand/Conv2D_weights", "StatefulPartitionedCall/sequential_4/mobilenetv2_1.00_224/block_3_expand/Conv2D_bn_offset"], "device": "/device:CPU:0", "attr": {"explicit_paddings": {"list": {}}, "num_args": {"i": "1"}, "TArgs": {"list": {"type": ["DT_FLOAT"]}}, "epsilon": {"f": 0.0}, "leakyrelu_alpha": {"f": 0.2}, "T": {"type": "DT_FLOAT"}, "num_host_args": {"i": "0"}, "filter_format": {"s": "SFdJTw=="}, "strides": {"list": {"i": ["1", "1", "1", "1"]}}, "use_cudnn_on_gpu": {"b": true}, "data_format": {"s": "TkhXQw=="}, "fused_ops": {"list": {"s": ["Qmlhc0FkZA==", "UmVsdTY="]}}, "dilations": {"list": {"i": ["1", "1", "1", "1"]}}, "padding": {"s": "U0FNRQ=="}}}, {"name": "StatefulPartitionedCall/sequential_4/mobilenetv2_1.00_224/block_3_pad/Pad", "op": "Pad", "input": ["StatefulPartitionedCall/sequential_4/mobilenetv2_1.00_224/block_3_expand_relu/Relu6", "StatefulPartitionedCall/sequential_4/mobilenetv2_1.00_224/block_3_pad/Pad/paddings"], "attr": {"Tpaddings": {"type": "DT_INT32"}, "T": {"type": "DT_FLOAT"}}}, {"name": "StatefulPartitionedCall/sequential_4/mobilenetv2_1.00_224/block_3_depthwise/depthwise", "op": "FusedDepthwiseConv2dNative", "input": ["StatefulPartitionedCall/sequential_4/mobilenetv2_1.00_224/block_3_pad/Pad", "StatefulPartitionedCall/sequential_4/mobilenetv2_1.00_224/block_3_depthwise/depthwise_weights", "StatefulPartitionedCall/sequential_4/mobilenetv2_1.00_224/block_3_depthwise/depthwise_bn_offset"], "attr": {"strides": {"list": {"i": ["1", "2", "2", "1"]}}, "T": {"type": "DT_FLOAT"}, "fused_ops": {"list": {"s": ["Qmlhc0FkZA==", "UmVsdTY="]}}, "data_format": {"s": "TkhXQw=="}, "explicit_paddings": {"list": {}}, "dilations": {"list": {"i": ["1", "1", "1", "1"]}}, "num_args": {"i": "1"}, "padding": {"s": "VkFMSUQ="}}}, {"name": "StatefulPartitionedCall/sequential_4/mobilenetv2_1.00_224/block_3_project_BN/FusedBatchNormV3", "op": "_FusedConv2D", "input": ["StatefulPartitionedCall/sequential_4/mobilenetv2_1.00_224/block_3_depthwise/depthwise", "StatefulPartitionedCall/sequential_4/mobilenetv2_1.00_224/block_3_project/Conv2D_weights", "StatefulPartitionedCall/sequential_4/mobilenetv2_1.00_224/block_3_project/Conv2D_bn_offset"], "device": "/device:CPU:0", "attr": {"epsilon": {"f": 0.0}, "use_cudnn_on_gpu": {"b": true}, "num_args": {"i": "1"}, "padding": {"s": "U0FNRQ=="}, "strides": {"list": {"i": ["1", "1", "1", "1"]}}, "explicit_paddings": {"list": {}}, "leakyrelu_alpha": {"f": 0.2}, "fused_ops": {"list": {"s": ["Qmlhc0FkZA=="]}}, "T": {"type": "DT_FLOAT"}, "data_format": {"s": "TkhXQw=="}, "TArgs": {"list": {"type": ["DT_FLOAT"]}}, "dilations": {"list": {"i": ["1", "1", "1", "1"]}}, "num_host_args": {"i": "0"}, "filter_format": {"s": "SFdJTw=="}}}, {"name": "StatefulPartitionedCall/sequential_4/mobilenetv2_1.00_224/block_4_expand_relu/Relu6", "op": "_FusedConv2D", "input": ["StatefulPartitionedCall/sequential_4/mobilenetv2_1.00_224/block_3_project_BN/FusedBatchNormV3", "StatefulPartitionedCall/sequential_4/mobilenetv2_1.00_224/block_4_expand/Conv2D_weights", "StatefulPartitionedCall/sequential_4/mobilenetv2_1.00_224/block_4_expand/Conv2D_bn_offset"], "device": "/device:CPU:0", "attr": {"dilations": {"list": {"i": ["1", "1", "1", "1"]}}, "T": {"type": "DT_FLOAT"}, "padding": {"s": "U0FNRQ=="}, "TArgs": {"list": {"type": ["DT_FLOAT"]}}, "num_args": {"i": "1"}, "strides": {"list": {"i": ["1", "1", "1", "1"]}}, "data_format": {"s": "TkhXQw=="}, "leakyrelu_alpha": {"f": 0.2}, "fused_ops": {"list": {"s": ["Qmlhc0FkZA==", "UmVsdTY="]}}, "filter_format": {"s": "SFdJTw=="}, "num_host_args": {"i": "0"}, "explicit_paddings": {"list": {}}, "epsilon": {"f": 0.0}, "use_cudnn_on_gpu": {"b": true}}}, {"name": "StatefulPartitionedCall/sequential_4/mobilenetv2_1.00_224/block_4_depthwise/depthwise", "op": "FusedDepthwiseConv2dNative", "input": ["StatefulPartitionedCall/sequential_4/mobilenetv2_1.00_224/block_4_expand_relu/Relu6", "StatefulPartitionedCall/sequential_4/mobilenetv2_1.00_224/block_4_depthwise/depthwise_weights", "StatefulPartitionedCall/sequential_4/mobilenetv2_1.00_224/block_4_depthwise/depthwise_bn_offset"], "attr": {"padding": {"s": "U0FNRQ=="}, "dilations": {"list": {"i": ["1", "1", "1", "1"]}}, "strides": {"list": {"i": ["1", "1", "1", "1"]}}, "T": {"type": "DT_FLOAT"}, "explicit_paddings": {"list": {}}, "fused_ops": {"list": {"s": ["Qmlhc0FkZA==", "UmVsdTY="]}}, "num_args": {"i": "1"}, "data_format": {"s": "TkhXQw=="}}}, {"name": "StatefulPartitionedCall/sequential_4/mobilenetv2_1.00_224/block_4_project_BN/FusedBatchNormV3", "op": "_FusedConv2D", "input": ["StatefulPartitionedCall/sequential_4/mobilenetv2_1.00_224/block_4_depthwise/depthwise", "StatefulPartitionedCall/sequential_4/mobilenetv2_1.00_224/block_4_project/Conv2D_weights", "StatefulPartitionedCall/sequential_4/mobilenetv2_1.00_224/block_4_project/Conv2D_bn_offset"], "device": "/device:CPU:0", "attr": {"data_format": {"s": "TkhXQw=="}, "strides": {"list": {"i": ["1", "1", "1", "1"]}}, "use_cudnn_on_gpu": {"b": true}, "explicit_paddings": {"list": {}}, "epsilon": {"f": 0.0}, "leakyrelu_alpha": {"f": 0.2}, "dilations": {"list": {"i": ["1", "1", "1", "1"]}}, "filter_format": {"s": "SFdJTw=="}, "num_host_args": {"i": "0"}, "T": {"type": "DT_FLOAT"}, "padding": {"s": "U0FNRQ=="}, "fused_ops": {"list": {"s": ["Qmlhc0FkZA=="]}}, "TArgs": {"list": {"type": ["DT_FLOAT"]}}, "num_args": {"i": "1"}}}, {"name": "StatefulPartitionedCall/sequential_4/mobilenetv2_1.00_224/block_4_add/add", "op": "AddV2", "input": ["StatefulPartitionedCall/sequential_4/mobilenetv2_1.00_224/block_3_project_BN/FusedBatchNormV3", "StatefulPartitionedCall/sequential_4/mobilenetv2_1.00_224/block_4_project_BN/FusedBatchNormV3"], "attr": {"T": {"type": "DT_FLOAT"}}}, {"name": "StatefulPartitionedCall/sequential_4/mobilenetv2_1.00_224/block_5_expand_relu/Relu6", "op": "_FusedConv2D", "input": ["StatefulPartitionedCall/sequential_4/mobilenetv2_1.00_224/block_4_add/add", "StatefulPartitionedCall/sequential_4/mobilenetv2_1.00_224/block_5_expand/Conv2D_weights", "StatefulPartitionedCall/sequential_4/mobilenetv2_1.00_224/block_5_expand/Conv2D_bn_offset"], "device": "/device:CPU:0", "attr": {"strides": {"list": {"i": ["1", "1", "1", "1"]}}, "filter_format": {"s": "SFdJTw=="}, "T": {"type": "DT_FLOAT"}, "num_args": {"i": "1"}, "data_format": {"s": "TkhXQw=="}, "explicit_paddings": {"list": {}}, "padding": {"s": "U0FNRQ=="}, "num_host_args": {"i": "0"}, "epsilon": {"f": 0.0}, "TArgs": {"list": {"type": ["DT_FLOAT"]}}, "fused_ops": {"list": {"s": ["Qmlhc0FkZA==", "UmVsdTY="]}}, "leakyrelu_alpha": {"f": 0.2}, "dilations": {"list": {"i": ["1", "1", "1", "1"]}}, "use_cudnn_on_gpu": {"b": true}}}, {"name": "StatefulPartitionedCall/sequential_4/mobilenetv2_1.00_224/block_5_depthwise/depthwise", "op": "FusedDepthwiseConv2dNative", "input": ["StatefulPartitionedCall/sequential_4/mobilenetv2_1.00_224/block_5_expand_relu/Relu6", "StatefulPartitionedCall/sequential_4/mobilenetv2_1.00_224/block_5_depthwise/depthwise_weights", "StatefulPartitionedCall/sequential_4/mobilenetv2_1.00_224/block_5_depthwise/depthwise_bn_offset"], "attr": {"explicit_paddings": {"list": {}}, "padding": {"s": "U0FNRQ=="}, "num_args": {"i": "1"}, "T": {"type": "DT_FLOAT"}, "dilations": {"list": {"i": ["1", "1", "1", "1"]}}, "data_format": {"s": "TkhXQw=="}, "fused_ops": {"list": {"s": ["Qmlhc0FkZA==", "UmVsdTY="]}}, "strides": {"list": {"i": ["1", "1", "1", "1"]}}}}, {"name": "StatefulPartitionedCall/sequential_4/mobilenetv2_1.00_224/block_5_project_BN/FusedBatchNormV3", "op": "_FusedConv2D", "input": ["StatefulPartitionedCall/sequential_4/mobilenetv2_1.00_224/block_5_depthwise/depthwise", "StatefulPartitionedCall/sequential_4/mobilenetv2_1.00_224/block_5_project/Conv2D_weights", "StatefulPartitionedCall/sequential_4/mobilenetv2_1.00_224/block_5_project/Conv2D_bn_offset"], "device": "/device:CPU:0", "attr": {"use_cudnn_on_gpu": {"b": true}, "fused_ops": {"list": {"s": ["Qmlhc0FkZA=="]}}, "dilations": {"list": {"i": ["1", "1", "1", "1"]}}, "strides": {"list": {"i": ["1", "1", "1", "1"]}}, "leakyrelu_alpha": {"f": 0.2}, "num_host_args": {"i": "0"}, "num_args": {"i": "1"}, "explicit_paddings": {"list": {}}, "epsilon": {"f": 0.0}, "T": {"type": "DT_FLOAT"}, "padding": {"s": "U0FNRQ=="}, "TArgs": {"list": {"type": ["DT_FLOAT"]}}, "data_format": {"s": "TkhXQw=="}, "filter_format": {"s": "SFdJTw=="}}}, {"name": "StatefulPartitionedCall/sequential_4/mobilenetv2_1.00_224/block_5_add/add", "op": "AddV2", "input": ["StatefulPartitionedCall/sequential_4/mobilenetv2_1.00_224/block_4_add/add", "StatefulPartitionedCall/sequential_4/mobilenetv2_1.00_224/block_5_project_BN/FusedBatchNormV3"], "attr": {"T": {"type": "DT_FLOAT"}}}, {"name": "StatefulPartitionedCall/sequential_4/mobilenetv2_1.00_224/block_6_expand_relu/Relu6", "op": "_FusedConv2D", "input": ["StatefulPartitionedCall/sequential_4/mobilenetv2_1.00_224/block_5_add/add", "StatefulPartitionedCall/sequential_4/mobilenetv2_1.00_224/block_6_expand/Conv2D_weights", "StatefulPartitionedCall/sequential_4/mobilenetv2_1.00_224/block_6_expand/Conv2D_bn_offset"], "device": "/device:CPU:0", "attr": {"num_args": {"i": "1"}, "padding": {"s": "U0FNRQ=="}, "epsilon": {"f": 0.0}, "strides": {"list": {"i": ["1", "1", "1", "1"]}}, "use_cudnn_on_gpu": {"b": true}, "num_host_args": {"i": "0"}, "leakyrelu_alpha": {"f": 0.2}, "dilations": {"list": {"i": ["1", "1", "1", "1"]}}, "fused_ops": {"list": {"s": ["Qmlhc0FkZA==", "UmVsdTY="]}}, "data_format": {"s": "TkhXQw=="}, "TArgs": {"list": {"type": ["DT_FLOAT"]}}, "filter_format": {"s": "SFdJTw=="}, "explicit_paddings": {"list": {}}, "T": {"type": "DT_FLOAT"}}}, {"name": "StatefulPartitionedCall/sequential_4/mobilenetv2_1.00_224/block_6_pad/Pad", "op": "Pad", "input": ["StatefulPartitionedCall/sequential_4/mobilenetv2_1.00_224/block_6_expand_relu/Relu6", "StatefulPartitionedCall/sequential_4/mobilenetv2_1.00_224/block_6_pad/Pad/paddings"], "attr": {"T": {"type": "DT_FLOAT"}, "Tpaddings": {"type": "DT_INT32"}}}, {"name": "StatefulPartitionedCall/sequential_4/mobilenetv2_1.00_224/block_6_depthwise/depthwise", "op": "FusedDepthwiseConv2dNative", "input": ["StatefulPartitionedCall/sequential_4/mobilenetv2_1.00_224/block_6_pad/Pad", "StatefulPartitionedCall/sequential_4/mobilenetv2_1.00_224/block_6_depthwise/depthwise_weights", "StatefulPartitionedCall/sequential_4/mobilenetv2_1.00_224/block_6_depthwise/depthwise_bn_offset"], "attr": {"dilations": {"list": {"i": ["1", "1", "1", "1"]}}, "fused_ops": {"list": {"s": ["Qmlhc0FkZA==", "UmVsdTY="]}}, "strides": {"list": {"i": ["1", "2", "2", "1"]}}, "data_format": {"s": "TkhXQw=="}, "T": {"type": "DT_FLOAT"}, "padding": {"s": "VkFMSUQ="}, "explicit_paddings": {"list": {}}, "num_args": {"i": "1"}}}, {"name": "StatefulPartitionedCall/sequential_4/mobilenetv2_1.00_224/block_6_project_BN/FusedBatchNormV3", "op": "_FusedConv2D", "input": ["StatefulPartitionedCall/sequential_4/mobilenetv2_1.00_224/block_6_depthwise/depthwise", "StatefulPartitionedCall/sequential_4/mobilenetv2_1.00_224/block_6_project/Conv2D_weights", "StatefulPartitionedCall/sequential_4/mobilenetv2_1.00_224/block_6_project/Conv2D_bn_offset"], "device": "/device:CPU:0", "attr": {"num_host_args": {"i": "0"}, "filter_format": {"s": "SFdJTw=="}, "data_format": {"s": "TkhXQw=="}, "explicit_paddings": {"list": {}}, "strides": {"list": {"i": ["1", "1", "1", "1"]}}, "epsilon": {"f": 0.0}, "TArgs": {"list": {"type": ["DT_FLOAT"]}}, "padding": {"s": "U0FNRQ=="}, "dilations": {"list": {"i": ["1", "1", "1", "1"]}}, "num_args": {"i": "1"}, "fused_ops": {"list": {"s": ["Qmlhc0FkZA=="]}}, "T": {"type": "DT_FLOAT"}, "leakyrelu_alpha": {"f": 0.2}, "use_cudnn_on_gpu": {"b": true}}}, {"name": "StatefulPartitionedCall/sequential_4/mobilenetv2_1.00_224/block_7_expand_relu/Relu6", "op": "_FusedConv2D", "input": ["StatefulPartitionedCall/sequential_4/mobilenetv2_1.00_224/block_6_project_BN/FusedBatchNormV3", "StatefulPartitionedCall/sequential_4/mobilenetv2_1.00_224/block_7_expand/Conv2D_weights", "StatefulPartitionedCall/sequential_4/mobilenetv2_1.00_224/block_7_expand/Conv2D_bn_offset"], "device": "/device:CPU:0", "attr": {"strides": {"list": {"i": ["1", "1", "1", "1"]}}, "data_format": {"s": "TkhXQw=="}, "explicit_paddings": {"list": {}}, "fused_ops": {"list": {"s": ["Qmlhc0FkZA==", "UmVsdTY="]}}, "filter_format": {"s": "SFdJTw=="}, "leakyrelu_alpha": {"f": 0.2}, "T": {"type": "DT_FLOAT"}, "num_args": {"i": "1"}, "num_host_args": {"i": "0"}, "padding": {"s": "U0FNRQ=="}, "use_cudnn_on_gpu": {"b": true}, "TArgs": {"list": {"type": ["DT_FLOAT"]}}, "epsilon": {"f": 0.0}, "dilations": {"list": {"i": ["1", "1", "1", "1"]}}}}, {"name": "StatefulPartitionedCall/sequential_4/mobilenetv2_1.00_224/block_7_depthwise/depthwise", "op": "FusedDepthwiseConv2dNative", "input": ["StatefulPartitionedCall/sequential_4/mobilenetv2_1.00_224/block_7_expand_relu/Relu6", "StatefulPartitionedCall/sequential_4/mobilenetv2_1.00_224/block_7_depthwise/depthwise_weights", "StatefulPartitionedCall/sequential_4/mobilenetv2_1.00_224/block_7_depthwise/depthwise_bn_offset"], "attr": {"T": {"type": "DT_FLOAT"}, "data_format": {"s": "TkhXQw=="}, "explicit_paddings": {"list": {}}, "padding": {"s": "U0FNRQ=="}, "fused_ops": {"list": {"s": ["Qmlhc0FkZA==", "UmVsdTY="]}}, "dilations": {"list": {"i": ["1", "1", "1", "1"]}}, "num_args": {"i": "1"}, "strides": {"list": {"i": ["1", "1", "1", "1"]}}}}, {"name": "StatefulPartitionedCall/sequential_4/mobilenetv2_1.00_224/block_7_project_BN/FusedBatchNormV3", "op": "_FusedConv2D", "input": ["StatefulPartitionedCall/sequential_4/mobilenetv2_1.00_224/block_7_depthwise/depthwise", "StatefulPartitionedCall/sequential_4/mobilenetv2_1.00_224/block_7_project/Conv2D_weights", "StatefulPartitionedCall/sequential_4/mobilenetv2_1.00_224/block_7_project/Conv2D_bn_offset"], "device": "/device:CPU:0", "attr": {"strides": {"list": {"i": ["1", "1", "1", "1"]}}, "TArgs": {"list": {"type": ["DT_FLOAT"]}}, "explicit_paddings": {"list": {}}, "T": {"type": "DT_FLOAT"}, "num_host_args": {"i": "0"}, "epsilon": {"f": 0.0}, "use_cudnn_on_gpu": {"b": true}, "num_args": {"i": "1"}, "padding": {"s": "U0FNRQ=="}, "filter_format": {"s": "SFdJTw=="}, "leakyrelu_alpha": {"f": 0.2}, "data_format": {"s": "TkhXQw=="}, "fused_ops": {"list": {"s": ["Qmlhc0FkZA=="]}}, "dilations": {"list": {"i": ["1", "1", "1", "1"]}}}}, {"name": "StatefulPartitionedCall/sequential_4/mobilenetv2_1.00_224/block_7_add/add", "op": "AddV2", "input": ["StatefulPartitionedCall/sequential_4/mobilenetv2_1.00_224/block_6_project_BN/FusedBatchNormV3", "StatefulPartitionedCall/sequential_4/mobilenetv2_1.00_224/block_7_project_BN/FusedBatchNormV3"], "attr": {"T": {"type": "DT_FLOAT"}}}, {"name": "StatefulPartitionedCall/sequential_4/mobilenetv2_1.00_224/block_8_expand_relu/Relu6", "op": "_FusedConv2D", "input": ["StatefulPartitionedCall/sequential_4/mobilenetv2_1.00_224/block_7_add/add", "StatefulPartitionedCall/sequential_4/mobilenetv2_1.00_224/block_8_expand/Conv2D_weights", "StatefulPartitionedCall/sequential_4/mobilenetv2_1.00_224/block_8_expand/Conv2D_bn_offset"], "device": "/device:CPU:0", "attr": {"data_format": {"s": "TkhXQw=="}, "num_host_args": {"i": "0"}, "filter_format": {"s": "SFdJTw=="}, "epsilon": {"f": 0.0}, "explicit_paddings": {"list": {}}, "strides": {"list": {"i": ["1", "1", "1", "1"]}}, "leakyrelu_alpha": {"f": 0.2}, "padding": {"s": "U0FNRQ=="}, "num_args": {"i": "1"}, "dilations": {"list": {"i": ["1", "1", "1", "1"]}}, "fused_ops": {"list": {"s": ["Qmlhc0FkZA==", "UmVsdTY="]}}, "TArgs": {"list": {"type": ["DT_FLOAT"]}}, "T": {"type": "DT_FLOAT"}, "use_cudnn_on_gpu": {"b": true}}}, {"name": "StatefulPartitionedCall/sequential_4/mobilenetv2_1.00_224/block_8_depthwise/depthwise", "op": "FusedDepthwiseConv2dNative", "input": ["StatefulPartitionedCall/sequential_4/mobilenetv2_1.00_224/block_8_expand_relu/Relu6", "StatefulPartitionedCall/sequential_4/mobilenetv2_1.00_224/block_8_depthwise/depthwise_weights", "StatefulPartitionedCall/sequential_4/mobilenetv2_1.00_224/block_8_depthwise/depthwise_bn_offset"], "attr": {"strides": {"list": {"i": ["1", "1", "1", "1"]}}, "num_args": {"i": "1"}, "T": {"type": "DT_FLOAT"}, "dilations": {"list": {"i": ["1", "1", "1", "1"]}}, "explicit_paddings": {"list": {}}, "data_format": {"s": "TkhXQw=="}, "padding": {"s": "U0FNRQ=="}, "fused_ops": {"list": {"s": ["Qmlhc0FkZA==", "UmVsdTY="]}}}}, {"name": "StatefulPartitionedCall/sequential_4/mobilenetv2_1.00_224/block_8_project_BN/FusedBatchNormV3", "op": "_FusedConv2D", "input": ["StatefulPartitionedCall/sequential_4/mobilenetv2_1.00_224/block_8_depthwise/depthwise", "StatefulPartitionedCall/sequential_4/mobilenetv2_1.00_224/block_8_project/Conv2D_weights", "StatefulPartitionedCall/sequential_4/mobilenetv2_1.00_224/block_8_project/Conv2D_bn_offset"], "device": "/device:CPU:0", "attr": {"padding": {"s": "U0FNRQ=="}, "explicit_paddings": {"list": {}}, "leakyrelu_alpha": {"f": 0.2}, "dilations": {"list": {"i": ["1", "1", "1", "1"]}}, "fused_ops": {"list": {"s": ["Qmlhc0FkZA=="]}}, "num_host_args": {"i": "0"}, "strides": {"list": {"i": ["1", "1", "1", "1"]}}, "data_format": {"s": "TkhXQw=="}, "T": {"type": "DT_FLOAT"}, "TArgs": {"list": {"type": ["DT_FLOAT"]}}, "filter_format": {"s": "SFdJTw=="}, "use_cudnn_on_gpu": {"b": true}, "num_args": {"i": "1"}, "epsilon": {"f": 0.0}}}, {"name": "StatefulPartitionedCall/sequential_4/mobilenetv2_1.00_224/block_8_add/add", "op": "AddV2", "input": ["StatefulPartitionedCall/sequential_4/mobilenetv2_1.00_224/block_7_add/add", "StatefulPartitionedCall/sequential_4/mobilenetv2_1.00_224/block_8_project_BN/FusedBatchNormV3"], "attr": {"T": {"type": "DT_FLOAT"}}}, {"name": "StatefulPartitionedCall/sequential_4/mobilenetv2_1.00_224/block_9_expand_relu/Relu6", "op": "_FusedConv2D", "input": ["StatefulPartitionedCall/sequential_4/mobilenetv2_1.00_224/block_8_add/add", "StatefulPartitionedCall/sequential_4/mobilenetv2_1.00_224/block_9_expand/Conv2D_weights", "StatefulPartitionedCall/sequential_4/mobilenetv2_1.00_224/block_9_expand/Conv2D_bn_offset"], "device": "/device:CPU:0", "attr": {"filter_format": {"s": "SFdJTw=="}, "strides": {"list": {"i": ["1", "1", "1", "1"]}}, "fused_ops": {"list": {"s": ["Qmlhc0FkZA==", "UmVsdTY="]}}, "T": {"type": "DT_FLOAT"}, "num_args": {"i": "1"}, "epsilon": {"f": 0.0}, "data_format": {"s": "TkhXQw=="}, "TArgs": {"list": {"type": ["DT_FLOAT"]}}, "padding": {"s": "U0FNRQ=="}, "explicit_paddings": {"list": {}}, "use_cudnn_on_gpu": {"b": true}, "dilations": {"list": {"i": ["1", "1", "1", "1"]}}, "leakyrelu_alpha": {"f": 0.2}, "num_host_args": {"i": "0"}}}, {"name": "StatefulPartitionedCall/sequential_4/mobilenetv2_1.00_224/block_9_depthwise/depthwise", "op": "FusedDepthwiseConv2dNative", "input": ["StatefulPartitionedCall/sequential_4/mobilenetv2_1.00_224/block_9_expand_relu/Relu6", "StatefulPartitionedCall/sequential_4/mobilenetv2_1.00_224/block_9_depthwise/depthwise_weights", "StatefulPartitionedCall/sequential_4/mobilenetv2_1.00_224/block_9_depthwise/depthwise_bn_offset"], "attr": {"dilations": {"list": {"i": ["1", "1", "1", "1"]}}, "strides": {"list": {"i": ["1", "1", "1", "1"]}}, "data_format": {"s": "TkhXQw=="}, "num_args": {"i": "1"}, "padding": {"s": "U0FNRQ=="}, "T": {"type": "DT_FLOAT"}, "explicit_paddings": {"list": {}}, "fused_ops": {"list": {"s": ["Qmlhc0FkZA==", "UmVsdTY="]}}}}, {"name": "StatefulPartitionedCall/sequential_4/mobilenetv2_1.00_224/block_9_project_BN/FusedBatchNormV3", "op": "_FusedConv2D", "input": ["StatefulPartitionedCall/sequential_4/mobilenetv2_1.00_224/block_9_depthwise/depthwise", "StatefulPartitionedCall/sequential_4/mobilenetv2_1.00_224/block_9_project/Conv2D_weights", "StatefulPartitionedCall/sequential_4/mobilenetv2_1.00_224/block_9_project/Conv2D_bn_offset"], "device": "/device:CPU:0", "attr": {"fused_ops": {"list": {"s": ["Qmlhc0FkZA=="]}}, "epsilon": {"f": 0.0}, "T": {"type": "DT_FLOAT"}, "use_cudnn_on_gpu": {"b": true}, "num_args": {"i": "1"}, "data_format": {"s": "TkhXQw=="}, "TArgs": {"list": {"type": ["DT_FLOAT"]}}, "leakyrelu_alpha": {"f": 0.2}, "filter_format": {"s": "SFdJTw=="}, "num_host_args": {"i": "0"}, "padding": {"s": "U0FNRQ=="}, "strides": {"list": {"i": ["1", "1", "1", "1"]}}, "dilations": {"list": {"i": ["1", "1", "1", "1"]}}, "explicit_paddings": {"list": {}}}}, {"name": "StatefulPartitionedCall/sequential_4/mobilenetv2_1.00_224/block_9_add/add", "op": "AddV2", "input": ["StatefulPartitionedCall/sequential_4/mobilenetv2_1.00_224/block_8_add/add", "StatefulPartitionedCall/sequential_4/mobilenetv2_1.00_224/block_9_project_BN/FusedBatchNormV3"], "attr": {"T": {"type": "DT_FLOAT"}}}, {"name": "StatefulPartitionedCall/sequential_4/mobilenetv2_1.00_224/block_10_expand_relu/Relu6", "op": "_FusedConv2D", "input": ["StatefulPartitionedCall/sequential_4/mobilenetv2_1.00_224/block_9_add/add", "StatefulPartitionedCall/sequential_4/mobilenetv2_1.00_224/block_10_expand/Conv2D_weights", "StatefulPartitionedCall/sequential_4/mobilenetv2_1.00_224/block_10_expand/Conv2D_bn_offset"], "device": "/device:CPU:0", "attr": {"fused_ops": {"list": {"s": ["Qmlhc0FkZA==", "UmVsdTY="]}}, "leakyrelu_alpha": {"f": 0.2}, "T": {"type": "DT_FLOAT"}, "filter_format": {"s": "SFdJTw=="}, "num_args": {"i": "1"}, "padding": {"s": "U0FNRQ=="}, "epsilon": {"f": 0.0}, "dilations": {"list": {"i": ["1", "1", "1", "1"]}}, "num_host_args": {"i": "0"}, "data_format": {"s": "TkhXQw=="}, "TArgs": {"list": {"type": ["DT_FLOAT"]}}, "explicit_paddings": {"list": {}}, "strides": {"list": {"i": ["1", "1", "1", "1"]}}, "use_cudnn_on_gpu": {"b": true}}}, {"name": "StatefulPartitionedCall/sequential_4/mobilenetv2_1.00_224/block_10_depthwise/depthwise", "op": "FusedDepthwiseConv2dNative", "input": ["StatefulPartitionedCall/sequential_4/mobilenetv2_1.00_224/block_10_expand_relu/Relu6", "StatefulPartitionedCall/sequential_4/mobilenetv2_1.00_224/block_10_depthwise/depthwise_weights", "StatefulPartitionedCall/sequential_4/mobilenetv2_1.00_224/block_10_depthwise/depthwise_bn_offset"], "attr": {"dilations": {"list": {"i": ["1", "1", "1", "1"]}}, "data_format": {"s": "TkhXQw=="}, "fused_ops": {"list": {"s": ["Qmlhc0FkZA==", "UmVsdTY="]}}, "explicit_paddings": {"list": {}}, "padding": {"s": "U0FNRQ=="}, "T": {"type": "DT_FLOAT"}, "num_args": {"i": "1"}, "strides": {"list": {"i": ["1", "1", "1", "1"]}}}}, {"name": "StatefulPartitionedCall/sequential_4/mobilenetv2_1.00_224/block_10_project_BN/FusedBatchNormV3", "op": "_FusedConv2D", "input": ["StatefulPartitionedCall/sequential_4/mobilenetv2_1.00_224/block_10_depthwise/depthwise", "StatefulPartitionedCall/sequential_4/mobilenetv2_1.00_224/block_10_project/Conv2D_weights", "StatefulPartitionedCall/sequential_4/mobilenetv2_1.00_224/block_10_project/Conv2D_bn_offset"], "device": "/device:CPU:0", "attr": {"filter_format": {"s": "SFdJTw=="}, "strides": {"list": {"i": ["1", "1", "1", "1"]}}, "num_host_args": {"i": "0"}, "T": {"type": "DT_FLOAT"}, "TArgs": {"list": {"type": ["DT_FLOAT"]}}, "use_cudnn_on_gpu": {"b": true}, "epsilon": {"f": 0.0}, "padding": {"s": "U0FNRQ=="}, "explicit_paddings": {"list": {}}, "data_format": {"s": "TkhXQw=="}, "fused_ops": {"list": {"s": ["Qmlhc0FkZA=="]}}, "dilations": {"list": {"i": ["1", "1", "1", "1"]}}, "num_args": {"i": "1"}, "leakyrelu_alpha": {"f": 0.2}}}, {"name": "StatefulPartitionedCall/sequential_4/mobilenetv2_1.00_224/block_11_expand_relu/Relu6", "op": "_FusedConv2D", "input": ["StatefulPartitionedCall/sequential_4/mobilenetv2_1.00_224/block_10_project_BN/FusedBatchNormV3", "StatefulPartitionedCall/sequential_4/mobilenetv2_1.00_224/block_11_expand/Conv2D_weights", "StatefulPartitionedCall/sequential_4/mobilenetv2_1.00_224/block_11_expand/Conv2D_bn_offset"], "device": "/device:CPU:0", "attr": {"num_args": {"i": "1"}, "strides": {"list": {"i": ["1", "1", "1", "1"]}}, "TArgs": {"list": {"type": ["DT_FLOAT"]}}, "padding": {"s": "U0FNRQ=="}, "fused_ops": {"list": {"s": ["Qmlhc0FkZA==", "UmVsdTY="]}}, "dilations": {"list": {"i": ["1", "1", "1", "1"]}}, "filter_format": {"s": "SFdJTw=="}, "leakyrelu_alpha": {"f": 0.2}, "explicit_paddings": {"list": {}}, "use_cudnn_on_gpu": {"b": true}, "T": {"type": "DT_FLOAT"}, "epsilon": {"f": 0.0}, "data_format": {"s": "TkhXQw=="}, "num_host_args": {"i": "0"}}}, {"name": "StatefulPartitionedCall/sequential_4/mobilenetv2_1.00_224/block_11_depthwise/depthwise", "op": "FusedDepthwiseConv2dNative", "input": ["StatefulPartitionedCall/sequential_4/mobilenetv2_1.00_224/block_11_expand_relu/Relu6", "StatefulPartitionedCall/sequential_4/mobilenetv2_1.00_224/block_11_depthwise/depthwise_weights", "StatefulPartitionedCall/sequential_4/mobilenetv2_1.00_224/block_11_depthwise/depthwise_bn_offset"], "attr": {"num_args": {"i": "1"}, "padding": {"s": "U0FNRQ=="}, "explicit_paddings": {"list": {}}, "dilations": {"list": {"i": ["1", "1", "1", "1"]}}, "strides": {"list": {"i": ["1", "1", "1", "1"]}}, "fused_ops": {"list": {"s": ["Qmlhc0FkZA==", "UmVsdTY="]}}, "T": {"type": "DT_FLOAT"}, "data_format": {"s": "TkhXQw=="}}}, {"name": "StatefulPartitionedCall/sequential_4/mobilenetv2_1.00_224/block_11_project_BN/FusedBatchNormV3", "op": "_FusedConv2D", "input": ["StatefulPartitionedCall/sequential_4/mobilenetv2_1.00_224/block_11_depthwise/depthwise", "StatefulPartitionedCall/sequential_4/mobilenetv2_1.00_224/block_11_project/Conv2D_weights", "StatefulPartitionedCall/sequential_4/mobilenetv2_1.00_224/block_11_project/Conv2D_bn_offset"], "device": "/device:CPU:0", "attr": {"fused_ops": {"list": {"s": ["Qmlhc0FkZA=="]}}, "num_args": {"i": "1"}, "TArgs": {"list": {"type": ["DT_FLOAT"]}}, "dilations": {"list": {"i": ["1", "1", "1", "1"]}}, "explicit_paddings": {"list": {}}, "strides": {"list": {"i": ["1", "1", "1", "1"]}}, "num_host_args": {"i": "0"}, "padding": {"s": "U0FNRQ=="}, "leakyrelu_alpha": {"f": 0.2}, "use_cudnn_on_gpu": {"b": true}, "filter_format": {"s": "SFdJTw=="}, "data_format": {"s": "TkhXQw=="}, "T": {"type": "DT_FLOAT"}, "epsilon": {"f": 0.0}}}, {"name": "StatefulPartitionedCall/sequential_4/mobilenetv2_1.00_224/block_11_add/add", "op": "AddV2", "input": ["StatefulPartitionedCall/sequential_4/mobilenetv2_1.00_224/block_10_project_BN/FusedBatchNormV3", "StatefulPartitionedCall/sequential_4/mobilenetv2_1.00_224/block_11_project_BN/FusedBatchNormV3"], "attr": {"T": {"type": "DT_FLOAT"}}}, {"name": "StatefulPartitionedCall/sequential_4/mobilenetv2_1.00_224/block_12_expand_relu/Relu6", "op": "_FusedConv2D", "input": ["StatefulPartitionedCall/sequential_4/mobilenetv2_1.00_224/block_11_add/add", "StatefulPartitionedCall/sequential_4/mobilenetv2_1.00_224/block_12_expand/Conv2D_weights", "StatefulPartitionedCall/sequential_4/mobilenetv2_1.00_224/block_12_expand/Conv2D_bn_offset"], "device": "/device:CPU:0", "attr": {"strides": {"list": {"i": ["1", "1", "1", "1"]}}, "num_host_args": {"i": "0"}, "use_cudnn_on_gpu": {"b": true}, "padding": {"s": "U0FNRQ=="}, "filter_format": {"s": "SFdJTw=="}, "data_format": {"s": "TkhXQw=="}, "dilations": {"list": {"i": ["1", "1", "1", "1"]}}, "fused_ops": {"list": {"s": ["Qmlhc0FkZA==", "UmVsdTY="]}}, "TArgs": {"list": {"type": ["DT_FLOAT"]}}, "T": {"type": "DT_FLOAT"}, "num_args": {"i": "1"}, "explicit_paddings": {"list": {}}, "leakyrelu_alpha": {"f": 0.2}, "epsilon": {"f": 0.0}}}, {"name": "StatefulPartitionedCall/sequential_4/mobilenetv2_1.00_224/block_12_depthwise/depthwise", "op": "FusedDepthwiseConv2dNative", "input": ["StatefulPartitionedCall/sequential_4/mobilenetv2_1.00_224/block_12_expand_relu/Relu6", "StatefulPartitionedCall/sequential_4/mobilenetv2_1.00_224/block_12_depthwise/depthwise_weights", "StatefulPartitionedCall/sequential_4/mobilenetv2_1.00_224/block_12_depthwise/depthwise_bn_offset"], "attr": {"dilations": {"list": {"i": ["1", "1", "1", "1"]}}, "T": {"type": "DT_FLOAT"}, "explicit_paddings": {"list": {}}, "strides": {"list": {"i": ["1", "1", "1", "1"]}}, "data_format": {"s": "TkhXQw=="}, "padding": {"s": "U0FNRQ=="}, "fused_ops": {"list": {"s": ["Qmlhc0FkZA==", "UmVsdTY="]}}, "num_args": {"i": "1"}}}, {"name": "StatefulPartitionedCall/sequential_4/mobilenetv2_1.00_224/block_12_project_BN/FusedBatchNormV3", "op": "_FusedConv2D", "input": ["StatefulPartitionedCall/sequential_4/mobilenetv2_1.00_224/block_12_depthwise/depthwise", "StatefulPartitionedCall/sequential_4/mobilenetv2_1.00_224/block_12_project/Conv2D_weights", "StatefulPartitionedCall/sequential_4/mobilenetv2_1.00_224/block_12_project/Conv2D_bn_offset"], "device": "/device:CPU:0", "attr": {"TArgs": {"list": {"type": ["DT_FLOAT"]}}, "filter_format": {"s": "SFdJTw=="}, "data_format": {"s": "TkhXQw=="}, "dilations": {"list": {"i": ["1", "1", "1", "1"]}}, "T": {"type": "DT_FLOAT"}, "num_args": {"i": "1"}, "num_host_args": {"i": "0"}, "strides": {"list": {"i": ["1", "1", "1", "1"]}}, "explicit_paddings": {"list": {}}, "padding": {"s": "U0FNRQ=="}, "fused_ops": {"list": {"s": ["Qmlhc0FkZA=="]}}, "leakyrelu_alpha": {"f": 0.2}, "use_cudnn_on_gpu": {"b": true}, "epsilon": {"f": 0.0}}}, {"name": "StatefulPartitionedCall/sequential_4/mobilenetv2_1.00_224/block_12_add/add", "op": "AddV2", "input": ["StatefulPartitionedCall/sequential_4/mobilenetv2_1.00_224/block_11_add/add", "StatefulPartitionedCall/sequential_4/mobilenetv2_1.00_224/block_12_project_BN/FusedBatchNormV3"], "attr": {"T": {"type": "DT_FLOAT"}}}, {"name": "StatefulPartitionedCall/sequential_4/mobilenetv2_1.00_224/block_13_expand_relu/Relu6", "op": "_FusedConv2D", "input": ["StatefulPartitionedCall/sequential_4/mobilenetv2_1.00_224/block_12_add/add", "StatefulPartitionedCall/sequential_4/mobilenetv2_1.00_224/block_13_expand/Conv2D_weights", "StatefulPartitionedCall/sequential_4/mobilenetv2_1.00_224/block_13_expand/Conv2D_bn_offset"], "device": "/device:CPU:0", "attr": {"strides": {"list": {"i": ["1", "1", "1", "1"]}}, "padding": {"s": "U0FNRQ=="}, "use_cudnn_on_gpu": {"b": true}, "data_format": {"s": "TkhXQw=="}, "fused_ops": {"list": {"s": ["Qmlhc0FkZA==", "UmVsdTY="]}}, "epsilon": {"f": 0.0}, "filter_format": {"s": "SFdJTw=="}, "dilations": {"list": {"i": ["1", "1", "1", "1"]}}, "explicit_paddings": {"list": {}}, "num_host_args": {"i": "0"}, "TArgs": {"list": {"type": ["DT_FLOAT"]}}, "num_args": {"i": "1"}, "leakyrelu_alpha": {"f": 0.2}, "T": {"type": "DT_FLOAT"}}}, {"name": "StatefulPartitionedCall/sequential_4/mobilenetv2_1.00_224/block_13_pad/Pad", "op": "Pad", "input": ["StatefulPartitionedCall/sequential_4/mobilenetv2_1.00_224/block_13_expand_relu/Relu6", "StatefulPartitionedCall/sequential_4/mobilenetv2_1.00_224/block_13_pad/Pad/paddings"], "attr": {"Tpaddings": {"type": "DT_INT32"}, "T": {"type": "DT_FLOAT"}}}, {"name": "StatefulPartitionedCall/sequential_4/mobilenetv2_1.00_224/block_13_depthwise/depthwise", "op": "FusedDepthwiseConv2dNative", "input": ["StatefulPartitionedCall/sequential_4/mobilenetv2_1.00_224/block_13_pad/Pad", "StatefulPartitionedCall/sequential_4/mobilenetv2_1.00_224/block_13_depthwise/depthwise_weights", "StatefulPartitionedCall/sequential_4/mobilenetv2_1.00_224/block_13_depthwise/depthwise_bn_offset"], "attr": {"padding": {"s": "VkFMSUQ="}, "num_args": {"i": "1"}, "fused_ops": {"list": {"s": ["Qmlhc0FkZA==", "UmVsdTY="]}}, "T": {"type": "DT_FLOAT"}, "strides": {"list": {"i": ["1", "2", "2", "1"]}}, "dilations": {"list": {"i": ["1", "1", "1", "1"]}}, "explicit_paddings": {"list": {}}, "data_format": {"s": "TkhXQw=="}}}, {"name": "StatefulPartitionedCall/sequential_4/mobilenetv2_1.00_224/block_13_project_BN/FusedBatchNormV3", "op": "_FusedConv2D", "input": ["StatefulPartitionedCall/sequential_4/mobilenetv2_1.00_224/block_13_depthwise/depthwise", "StatefulPartitionedCall/sequential_4/mobilenetv2_1.00_224/block_13_project/Conv2D_weights", "StatefulPartitionedCall/sequential_4/mobilenetv2_1.00_224/block_13_project/Conv2D_bn_offset"], "device": "/device:CPU:0", "attr": {"filter_format": {"s": "SFdJTw=="}, "use_cudnn_on_gpu": {"b": true}, "leakyrelu_alpha": {"f": 0.2}, "dilations": {"list": {"i": ["1", "1", "1", "1"]}}, "explicit_paddings": {"list": {}}, "fused_ops": {"list": {"s": ["Qmlhc0FkZA=="]}}, "T": {"type": "DT_FLOAT"}, "num_host_args": {"i": "0"}, "TArgs": {"list": {"type": ["DT_FLOAT"]}}, "strides": {"list": {"i": ["1", "1", "1", "1"]}}, "num_args": {"i": "1"}, "epsilon": {"f": 0.0}, "data_format": {"s": "TkhXQw=="}, "padding": {"s": "U0FNRQ=="}}}, {"name": "StatefulPartitionedCall/sequential_4/mobilenetv2_1.00_224/block_14_expand_relu/Relu6", "op": "_FusedConv2D", "input": ["StatefulPartitionedCall/sequential_4/mobilenetv2_1.00_224/block_13_project_BN/FusedBatchNormV3", "StatefulPartitionedCall/sequential_4/mobilenetv2_1.00_224/block_14_expand/Conv2D_weights", "StatefulPartitionedCall/sequential_4/mobilenetv2_1.00_224/block_14_expand/Conv2D_bn_offset"], "device": "/device:CPU:0", "attr": {"use_cudnn_on_gpu": {"b": true}, "data_format": {"s": "TkhXQw=="}, "leakyrelu_alpha": {"f": 0.2}, "filter_format": {"s": "SFdJTw=="}, "TArgs": {"list": {"type": ["DT_FLOAT"]}}, "epsilon": {"f": 0.0}, "num_args": {"i": "1"}, "dilations": {"list": {"i": ["1", "1", "1", "1"]}}, "padding": {"s": "U0FNRQ=="}, "num_host_args": {"i": "0"}, "explicit_paddings": {"list": {}}, "fused_ops": {"list": {"s": ["Qmlhc0FkZA==", "UmVsdTY="]}}, "T": {"type": "DT_FLOAT"}, "strides": {"list": {"i": ["1", "1", "1", "1"]}}}}, {"name": "StatefulPartitionedCall/sequential_4/mobilenetv2_1.00_224/block_14_depthwise/depthwise", "op": "FusedDepthwiseConv2dNative", "input": ["StatefulPartitionedCall/sequential_4/mobilenetv2_1.00_224/block_14_expand_relu/Relu6", "StatefulPartitionedCall/sequential_4/mobilenetv2_1.00_224/block_14_depthwise/depthwise_weights", "StatefulPartitionedCall/sequential_4/mobilenetv2_1.00_224/block_14_depthwise/depthwise_bn_offset"], "attr": {"dilations": {"list": {"i": ["1", "1", "1", "1"]}}, "explicit_paddings": {"list": {}}, "fused_ops": {"list": {"s": ["Qmlhc0FkZA==", "UmVsdTY="]}}, "data_format": {"s": "TkhXQw=="}, "T": {"type": "DT_FLOAT"}, "strides": {"list": {"i": ["1", "1", "1", "1"]}}, "num_args": {"i": "1"}, "padding": {"s": "U0FNRQ=="}}}, {"name": "StatefulPartitionedCall/sequential_4/mobilenetv2_1.00_224/block_14_project_BN/FusedBatchNormV3", "op": "_FusedConv2D", "input": ["StatefulPartitionedCall/sequential_4/mobilenetv2_1.00_224/block_14_depthwise/depthwise", "StatefulPartitionedCall/sequential_4/mobilenetv2_1.00_224/block_14_project/Conv2D_weights", "StatefulPartitionedCall/sequential_4/mobilenetv2_1.00_224/block_14_project/Conv2D_bn_offset"], "device": "/device:CPU:0", "attr": {"use_cudnn_on_gpu": {"b": true}, "strides": {"list": {"i": ["1", "1", "1", "1"]}}, "explicit_paddings": {"list": {}}, "epsilon": {"f": 0.0}, "TArgs": {"list": {"type": ["DT_FLOAT"]}}, "leakyrelu_alpha": {"f": 0.2}, "fused_ops": {"list": {"s": ["Qmlhc0FkZA=="]}}, "T": {"type": "DT_FLOAT"}, "num_host_args": {"i": "0"}, "filter_format": {"s": "SFdJTw=="}, "data_format": {"s": "TkhXQw=="}, "dilations": {"list": {"i": ["1", "1", "1", "1"]}}, "padding": {"s": "U0FNRQ=="}, "num_args": {"i": "1"}}}, {"name": "StatefulPartitionedCall/sequential_4/mobilenetv2_1.00_224/block_14_add/add", "op": "AddV2", "input": ["StatefulPartitionedCall/sequential_4/mobilenetv2_1.00_224/block_13_project_BN/FusedBatchNormV3", "StatefulPartitionedCall/sequential_4/mobilenetv2_1.00_224/block_14_project_BN/FusedBatchNormV3"], "attr": {"T": {"type": "DT_FLOAT"}}}, {"name": "StatefulPartitionedCall/sequential_4/mobilenetv2_1.00_224/block_15_expand_relu/Relu6", "op": "_FusedConv2D", "input": ["StatefulPartitionedCall/sequential_4/mobilenetv2_1.00_224/block_14_add/add", "StatefulPartitionedCall/sequential_4/mobilenetv2_1.00_224/block_15_expand/Conv2D_weights", "StatefulPartitionedCall/sequential_4/mobilenetv2_1.00_224/block_15_expand/Conv2D_bn_offset"], "device": "/device:CPU:0", "attr": {"explicit_paddings": {"list": {}}, "filter_format": {"s": "SFdJTw=="}, "TArgs": {"list": {"type": ["DT_FLOAT"]}}, "leakyrelu_alpha": {"f": 0.2}, "dilations": {"list": {"i": ["1", "1", "1", "1"]}}, "fused_ops": {"list": {"s": ["Qmlhc0FkZA==", "UmVsdTY="]}}, "padding": {"s": "U0FNRQ=="}, "T": {"type": "DT_FLOAT"}, "strides": {"list": {"i": ["1", "1", "1", "1"]}}, "data_format": {"s": "TkhXQw=="}, "epsilon": {"f": 0.0}, "use_cudnn_on_gpu": {"b": true}, "num_args": {"i": "1"}, "num_host_args": {"i": "0"}}}, {"name": "StatefulPartitionedCall/sequential_4/mobilenetv2_1.00_224/block_15_depthwise/depthwise", "op": "FusedDepthwiseConv2dNative", "input": ["StatefulPartitionedCall/sequential_4/mobilenetv2_1.00_224/block_15_expand_relu/Relu6", "StatefulPartitionedCall/sequential_4/mobilenetv2_1.00_224/block_15_depthwise/depthwise_weights", "StatefulPartitionedCall/sequential_4/mobilenetv2_1.00_224/block_15_depthwise/depthwise_bn_offset"], "attr": {"fused_ops": {"list": {"s": ["Qmlhc0FkZA==", "UmVsdTY="]}}, "T": {"type": "DT_FLOAT"}, "explicit_paddings": {"list": {}}, "data_format": {"s": "TkhXQw=="}, "num_args": {"i": "1"}, "dilations": {"list": {"i": ["1", "1", "1", "1"]}}, "strides": {"list": {"i": ["1", "1", "1", "1"]}}, "padding": {"s": "U0FNRQ=="}}}, {"name": "StatefulPartitionedCall/sequential_4/mobilenetv2_1.00_224/block_15_project_BN/FusedBatchNormV3", "op": "_FusedConv2D", "input": ["StatefulPartitionedCall/sequential_4/mobilenetv2_1.00_224/block_15_depthwise/depthwise", "StatefulPartitionedCall/sequential_4/mobilenetv2_1.00_224/block_15_project/Conv2D_weights", "StatefulPartitionedCall/sequential_4/mobilenetv2_1.00_224/block_15_project/Conv2D_bn_offset"], "device": "/device:CPU:0", "attr": {"explicit_paddings": {"list": {}}, "leakyrelu_alpha": {"f": 0.2}, "TArgs": {"list": {"type": ["DT_FLOAT"]}}, "use_cudnn_on_gpu": {"b": true}, "filter_format": {"s": "SFdJTw=="}, "fused_ops": {"list": {"s": ["Qmlhc0FkZA=="]}}, "padding": {"s": "U0FNRQ=="}, "num_host_args": {"i": "0"}, "T": {"type": "DT_FLOAT"}, "data_format": {"s": "TkhXQw=="}, "dilations": {"list": {"i": ["1", "1", "1", "1"]}}, "epsilon": {"f": 0.0}, "strides": {"list": {"i": ["1", "1", "1", "1"]}}, "num_args": {"i": "1"}}}, {"name": "StatefulPartitionedCall/sequential_4/mobilenetv2_1.00_224/block_15_add/add", "op": "AddV2", "input": ["StatefulPartitionedCall/sequential_4/mobilenetv2_1.00_224/block_14_add/add", "StatefulPartitionedCall/sequential_4/mobilenetv2_1.00_224/block_15_project_BN/FusedBatchNormV3"], "attr": {"T": {"type": "DT_FLOAT"}}}, {"name": "StatefulPartitionedCall/sequential_4/mobilenetv2_1.00_224/block_16_expand_relu/Relu6", "op": "_FusedConv2D", "input": ["StatefulPartitionedCall/sequential_4/mobilenetv2_1.00_224/block_15_add/add", "StatefulPartitionedCall/sequential_4/mobilenetv2_1.00_224/block_16_expand/Conv2D_weights", "StatefulPartitionedCall/sequential_4/mobilenetv2_1.00_224/block_16_expand/Conv2D_bn_offset"], "device": "/device:CPU:0", "attr": {"padding": {"s": "U0FNRQ=="}, "num_args": {"i": "1"}, "data_format": {"s": "TkhXQw=="}, "leakyrelu_alpha": {"f": 0.2}, "strides": {"list": {"i": ["1", "1", "1", "1"]}}, "dilations": {"list": {"i": ["1", "1", "1", "1"]}}, "use_cudnn_on_gpu": {"b": true}, "explicit_paddings": {"list": {}}, "TArgs": {"list": {"type": ["DT_FLOAT"]}}, "epsilon": {"f": 0.0}, "num_host_args": {"i": "0"}, "T": {"type": "DT_FLOAT"}, "fused_ops": {"list": {"s": ["Qmlhc0FkZA==", "UmVsdTY="]}}, "filter_format": {"s": "SFdJTw=="}}}, {"name": "StatefulPartitionedCall/sequential_4/mobilenetv2_1.00_224/block_16_depthwise/depthwise", "op": "FusedDepthwiseConv2dNative", "input": ["StatefulPartitionedCall/sequential_4/mobilenetv2_1.00_224/block_16_expand_relu/Relu6", "StatefulPartitionedCall/sequential_4/mobilenetv2_1.00_224/block_16_depthwise/depthwise_weights", "StatefulPartitionedCall/sequential_4/mobilenetv2_1.00_224/block_16_depthwise/depthwise_bn_offset"], "attr": {"dilations": {"list": {"i": ["1", "1", "1", "1"]}}, "strides": {"list": {"i": ["1", "1", "1", "1"]}}, "fused_ops": {"list": {"s": ["Qmlhc0FkZA==", "UmVsdTY="]}}, "num_args": {"i": "1"}, "T": {"type": "DT_FLOAT"}, "padding": {"s": "U0FNRQ=="}, "data_format": {"s": "TkhXQw=="}, "explicit_paddings": {"list": {}}}}, {"name": "StatefulPartitionedCall/sequential_4/mobilenetv2_1.00_224/block_16_project_BN/FusedBatchNormV3", "op": "_FusedConv2D", "input": ["StatefulPartitionedCall/sequential_4/mobilenetv2_1.00_224/block_16_depthwise/depthwise", "StatefulPartitionedCall/sequential_4/mobilenetv2_1.00_224/block_16_project/Conv2D_weights", "StatefulPartitionedCall/sequential_4/mobilenetv2_1.00_224/block_16_project/Conv2D_bn_offset"], "device": "/device:CPU:0", "attr": {"epsilon": {"f": 0.0}, "num_args": {"i": "1"}, "data_format": {"s": "TkhXQw=="}, "num_host_args": {"i": "0"}, "T": {"type": "DT_FLOAT"}, "fused_ops": {"list": {"s": ["Qmlhc0FkZA=="]}}, "leakyrelu_alpha": {"f": 0.2}, "filter_format": {"s": "SFdJTw=="}, "use_cudnn_on_gpu": {"b": true}, "strides": {"list": {"i": ["1", "1", "1", "1"]}}, "padding": {"s": "U0FNRQ=="}, "explicit_paddings": {"list": {}}, "dilations": {"list": {"i": ["1", "1", "1", "1"]}}, "TArgs": {"list": {"type": ["DT_FLOAT"]}}}}, {"name": "StatefulPartitionedCall/sequential_4/mobilenetv2_1.00_224/out_relu/Relu6", "op": "_FusedConv2D", "input": ["StatefulPartitionedCall/sequential_4/mobilenetv2_1.00_224/block_16_project_BN/FusedBatchNormV3", "StatefulPartitionedCall/sequential_4/mobilenetv2_1.00_224/Conv_1/Conv2D_weights", "StatefulPartitionedCall/sequential_4/mobilenetv2_1.00_224/Conv_1/Conv2D_bn_offset"], "device": "/device:CPU:0", "attr": {"dilations": {"list": {"i": ["1", "1", "1", "1"]}}, "num_args": {"i": "1"}, "fused_ops": {"list": {"s": ["Qmlhc0FkZA==", "UmVsdTY="]}}, "epsilon": {"f": 0.0}, "strides": {"list": {"i": ["1", "1", "1", "1"]}}, "TArgs": {"list": {"type": ["DT_FLOAT"]}}, "explicit_paddings": {"list": {}}, "leakyrelu_alpha": {"f": 0.2}, "padding": {"s": "VkFMSUQ="}, "T": {"type": "DT_FLOAT"}, "num_host_args": {"i": "0"}, "data_format": {"s": "TkhXQw=="}, "filter_format": {"s": "SFdJTw=="}, "use_cudnn_on_gpu": {"b": true}}}, {"name": "StatefulPartitionedCall/sequential_4/global_average_pooling2d_4/Mean", "op": "Mean", "input": ["StatefulPartitionedCall/sequential_4/mobilenetv2_1.00_224/out_relu/Relu6", "StatefulPartitionedCall/sequential_4/global_average_pooling2d_4/Mean/reduction_indices"], "attr": {"Tidx": {"type": "DT_INT32"}, "keep_dims": {"b": false}, "T": {"type": "DT_FLOAT"}}}, {"name": "StatefulPartitionedCall/sequential_4/dense_16/Relu", "op": "_FusedMatMul", "input": ["StatefulPartitionedCall/sequential_4/global_average_pooling2d_4/Mean", "StatefulPartitionedCall/sequential_4/dense_16/MatMul/ReadVariableOp", "StatefulPartitionedCall/sequential_4/dense_16/BiasAdd/ReadVariableOp"], "device": "/device:CPU:0", "attr": {"transpose_b": {"b": false}, "leakyrelu_alpha": {"f": 0.2}, "transpose_a": {"b": false}, "fused_ops": {"list": {"s": ["Qmlhc0FkZA==", "UmVsdQ=="]}}, "num_args": {"i": "1"}, "epsilon": {"f": 0.0}, "T": {"type": "DT_FLOAT"}}}, {"name": "StatefulPartitionedCall/sequential_4/batch_normalization_12/batchnorm/mul_1", "op": "Mul", "input": ["StatefulPartitionedCall/sequential_4/dense_16/Relu", "StatefulPartitionedCall/sequential_4/batch_normalization_12/batchnorm/mul"], "attr": {"T": {"type": "DT_FLOAT"}}}, {"name": "StatefulPartitionedCall/sequential_4/batch_normalization_12/batchnorm/add_1", "op": "AddV2", "input": ["StatefulPartitionedCall/sequential_4/batch_normalization_12/batchnorm/mul_1", "StatefulPartitionedCall/sequential_4/batch_normalization_12/batchnorm/sub"], "attr": {"T": {"type": "DT_FLOAT"}}}, {"name": "StatefulPartitionedCall/sequential_4/dense_17/Relu", "op": "_FusedMatMul", "input": ["StatefulPartitionedCall/sequential_4/batch_normalization_12/batchnorm/add_1", "StatefulPartitionedCall/sequential_4/dense_17/MatMul/ReadVariableOp", "StatefulPartitionedCall/sequential_4/dense_17/BiasAdd/ReadVariableOp"], "device": "/device:CPU:0", "attr": {"num_args": {"i": "1"}, "transpose_a": {"b": false}, "transpose_b": {"b": false}, "T": {"type": "DT_FLOAT"}, "leakyrelu_alpha": {"f": 0.2}, "epsilon": {"f": 0.0}, "fused_ops": {"list": {"s": ["Qmlhc0FkZA==", "UmVsdQ=="]}}}}, {"name": "StatefulPartitionedCall/sequential_4/batch_normalization_13/batchnorm/mul_1", "op": "Mul", "input": ["StatefulPartitionedCall/sequential_4/dense_17/Relu", "StatefulPartitionedCall/sequential_4/batch_normalization_13/batchnorm/mul"], "attr": {"T": {"type": "DT_FLOAT"}}}, {"name": "StatefulPartitionedCall/sequential_4/batch_normalization_13/batchnorm/add_1", "op": "AddV2", "input": ["StatefulPartitionedCall/sequential_4/batch_normalization_13/batchnorm/mul_1", "StatefulPartitionedCall/sequential_4/batch_normalization_13/batchnorm/sub"], "attr": {"T": {"type": "DT_FLOAT"}}}, {"name": "StatefulPartitionedCall/sequential_4/dense_18/Relu", "op": "_FusedMatMul", "input": ["StatefulPartitionedCall/sequential_4/batch_normalization_13/batchnorm/add_1", "StatefulPartitionedCall/sequential_4/dense_18/MatMul/ReadVariableOp", "StatefulPartitionedCall/sequential_4/dense_18/BiasAdd/ReadVariableOp"], "device": "/device:CPU:0", "attr": {"transpose_a": {"b": false}, "num_args": {"i": "1"}, "fused_ops": {"list": {"s": ["Qmlhc0FkZA==", "UmVsdQ=="]}}, "epsilon": {"f": 0.0}, "T": {"type": "DT_FLOAT"}, "transpose_b": {"b": false}, "leakyrelu_alpha": {"f": 0.2}}}, {"name": "StatefulPartitionedCall/sequential_4/batch_normalization_14/batchnorm/mul_1", "op": "Mul", "input": ["StatefulPartitionedCall/sequential_4/dense_18/Relu", "StatefulPartitionedCall/sequential_4/batch_normalization_14/batchnorm/mul"], "attr": {"T": {"type": "DT_FLOAT"}}}, {"name": "StatefulPartitionedCall/sequential_4/batch_normalization_14/batchnorm/add_1", "op": "AddV2", "input": ["StatefulPartitionedCall/sequential_4/batch_normalization_14/batchnorm/mul_1", "StatefulPartitionedCall/sequential_4/batch_normalization_14/batchnorm/sub"], "attr": {"T": {"type": "DT_FLOAT"}}}, {"name": "StatefulPartitionedCall/sequential_4/dense_19/BiasAdd", "op": "_FusedMatMul", "input": ["StatefulPartitionedCall/sequential_4/batch_normalization_14/batchnorm/add_1", "StatefulPartitionedCall/sequential_4/dense_19/MatMul/ReadVariableOp", "StatefulPartitionedCall/sequential_4/dense_19/BiasAdd/ReadVariableOp"], "device": "/device:CPU:0", "attr": {"num_args": {"i": "1"}, "T": {"type": "DT_FLOAT"}, "epsilon": {"f": 0.0}, "leakyrelu_alpha": {"f": 0.2}, "transpose_b": {"b": false}, "transpose_a": {"b": false}, "fused_ops": {"list": {"s": ["Qmlhc0FkZA=="]}}}}, {"name": "StatefulPartitionedCall/sequential_4/dense_19/Softmax", "op": "Softmax", "input": ["StatefulPartitionedCall/sequential_4/dense_19/BiasAdd"], "attr": {"T": {"type": "DT_FLOAT"}}}, {"name": "Identity", "op": "Identity", "input": ["StatefulPartitionedCall/sequential_4/dense_19/Softmax"], "attr": {"T": {"type": "DT_FLOAT"}}}], "library": {}, "versions": {"producer": 1766}}, "weightsManifest": [{"paths": ["group1-shard1of4.bin", "group1-shard2of4.bin", "group1-shard3of4.bin", "group1-shard4of4.bin"], "weights": [{"name": "StatefulPartitionedCall/sequential_4/mobilenetv2_1.00_224/block_1_pad/Pad/paddings", "shape": [4, 2], "dtype": "int32"}, {"name": "StatefulPartitionedCall/sequential_4/mobilenetv2_1.00_224/block_3_pad/Pad/paddings", "shape": [4, 2], "dtype": "int32"}, {"name": "StatefulPartitionedCall/sequential_4/mobilenetv2_1.00_224/block_6_pad/Pad/paddings", "shape": [4, 2], "dtype": "int32"}, {"name": "StatefulPartitionedCall/sequential_4/mobilenetv2_1.00_224/block_13_pad/Pad/paddings", "shape": [4, 2], "dtype": "int32"}, {"name": "StatefulPartitionedCall/sequential_4/global_average_pooling2d_4/Mean/reduction_indices", "shape": [2], "dtype": "int32"}, {"name": "StatefulPartitionedCall/sequential_4/dense_16/MatMul/ReadVariableOp", "shape": [1280, 1024], "dtype": "float32"}, {"name": "StatefulPartitionedCall/sequential_4/dense_16/BiasAdd/ReadVariableOp", "shape": [1024], "dtype": "float32"}, {"name": "StatefulPartitionedCall/sequential_4/batch_normalization_12/batchnorm/mul", "shape": [1024], "dtype": "float32"}, {"name": "StatefulPartitionedCall/sequential_4/batch_normalization_12/batchnorm/sub", "shape": [1024], "dtype": "float32"}, {"name": "StatefulPartitionedCall/sequential_4/dense_17/MatMul/ReadVariableOp", "shape": [1024, 512], "dtype": "float32"}, {"name": "StatefulPartitionedCall/sequential_4/dense_17/BiasAdd/ReadVariableOp", "shape": [512], "dtype": "float32"}, {"name": "StatefulPartitionedCall/sequential_4/batch_normalization_13/batchnorm/mul", "shape": [512], "dtype": "float32"}, {"name": "StatefulPartitionedCall/sequential_4/batch_normalization_13/batchnorm/sub", "shape": [512], "dtype": "float32"}, {"name": "StatefulPartitionedCall/sequential_4/dense_18/MatMul/ReadVariableOp", "shape": [512, 256], "dtype": "float32"}, {"name": "StatefulPartitionedCall/sequential_4/dense_18/BiasAdd/ReadVariableOp", "shape": [256], "dtype": "float32"}, {"name": "StatefulPartitionedCall/sequential_4/batch_normalization_14/batchnorm/mul", "shape": [256], "dtype": "float32"}, {"name": "StatefulPartitionedCall/sequential_4/batch_normalization_14/batchnorm/sub", "shape": [256], "dtype": "float32"}, {"name": "StatefulPartitionedCall/sequential_4/dense_19/MatMul/ReadVariableOp", "shape": [256, 20], "dtype": "float32"}, {"name": "StatefulPartitionedCall/sequential_4/dense_19/BiasAdd/ReadVariableOp", "shape": [20], "dtype": "float32"}, {"name": "StatefulPartitionedCall/sequential_4/mobilenetv2_1.00_224/Conv1/Conv2D_weights", "shape": [3, 3, 3, 32], "dtype": "float32"}, {"name": "StatefulPartitionedCall/sequential_4/mobilenetv2_1.00_224/Conv1/Conv2D_bn_offset", "shape": [32], "dtype": "float32"}, {"name": "StatefulPartitionedCall/sequential_4/mobilenetv2_1.00_224/block_14_project/Conv2D_weights", "shape": [1, 1, 960, 160], "dtype": "float32"}, {"name": "StatefulPartitionedCall/sequential_4/mobilenetv2_1.00_224/expanded_conv_depthwise/depthwise_weights", "shape": [3, 3, 32, 1], "dtype": "float32"}, {"name": "StatefulPartitionedCall/sequential_4/mobilenetv2_1.00_224/expanded_conv_depthwise/depthwise_bn_offset", "shape": [32], "dtype": "float32"}, {"name": "StatefulPartitionedCall/sequential_4/mobilenetv2_1.00_224/expanded_conv_project/Conv2D_weights", "shape": [1, 1, 32, 16], "dtype": "float32"}, {"name": "StatefulPartitionedCall/sequential_4/mobilenetv2_1.00_224/expanded_conv_project/Conv2D_bn_offset", "shape": [16], "dtype": "float32"}, {"name": "StatefulPartitionedCall/sequential_4/mobilenetv2_1.00_224/block_1_expand/Conv2D_weights", "shape": [1, 1, 16, 96], "dtype": "float32"}, {"name": "StatefulPartitionedCall/sequential_4/mobilenetv2_1.00_224/block_14_project/Conv2D_bn_offset", "shape": [160], "dtype": "float32"}, {"name": "StatefulPartitionedCall/sequential_4/mobilenetv2_1.00_224/block_1_expand/Conv2D_bn_offset", "shape": [96], "dtype": "float32"}, {"name": "StatefulPartitionedCall/sequential_4/mobilenetv2_1.00_224/block_1_depthwise/depthwise_weights", "shape": [3, 3, 96, 1], "dtype": "float32"}, {"name": "StatefulPartitionedCall/sequential_4/mobilenetv2_1.00_224/block_1_depthwise/depthwise_bn_offset", "shape": [96], "dtype": "float32"}, {"name": "StatefulPartitionedCall/sequential_4/mobilenetv2_1.00_224/block_1_project/Conv2D_weights", "shape": [1, 1, 96, 24], "dtype": "float32"}, {"name": "StatefulPartitionedCall/sequential_4/mobilenetv2_1.00_224/block_1_project/Conv2D_bn_offset", "shape": [24], "dtype": "float32"}, {"name": "StatefulPartitionedCall/sequential_4/mobilenetv2_1.00_224/block_2_expand/Conv2D_weights", "shape": [1, 1, 24, 144], "dtype": "float32"}, {"name": "StatefulPartitionedCall/sequential_4/mobilenetv2_1.00_224/block_15_expand/Conv2D_weights", "shape": [1, 1, 160, 960], "dtype": "float32"}, {"name": "StatefulPartitionedCall/sequential_4/mobilenetv2_1.00_224/block_2_expand/Conv2D_bn_offset", "shape": [144], "dtype": "float32"}, {"name": "StatefulPartitionedCall/sequential_4/mobilenetv2_1.00_224/block_2_depthwise/depthwise_weights", "shape": [3, 3, 144, 1], "dtype": "float32"}, {"name": "StatefulPartitionedCall/sequential_4/mobilenetv2_1.00_224/block_2_depthwise/depthwise_bn_offset", "shape": [144], "dtype": "float32"}, {"name": "StatefulPartitionedCall/sequential_4/mobilenetv2_1.00_224/block_2_project/Conv2D_weights", "shape": [1, 1, 144, 24], "dtype": "float32"}, {"name": "StatefulPartitionedCall/sequential_4/mobilenetv2_1.00_224/block_15_expand/Conv2D_bn_offset", "shape": [960], "dtype": "float32"}, {"name": "StatefulPartitionedCall/sequential_4/mobilenetv2_1.00_224/block_2_project/Conv2D_bn_offset", "shape": [24], "dtype": "float32"}, {"name": "StatefulPartitionedCall/sequential_4/mobilenetv2_1.00_224/block_3_expand/Conv2D_weights", "shape": [1, 1, 24, 144], "dtype": "float32"}, {"name": "StatefulPartitionedCall/sequential_4/mobilenetv2_1.00_224/block_3_expand/Conv2D_bn_offset", "shape": [144], "dtype": "float32"}, {"name": "StatefulPartitionedCall/sequential_4/mobilenetv2_1.00_224/block_3_depthwise/depthwise_weights", "shape": [3, 3, 144, 1], "dtype": "float32"}, {"name": "StatefulPartitionedCall/sequential_4/mobilenetv2_1.00_224/block_3_depthwise/depthwise_bn_offset", "shape": [144], "dtype": "float32"}, {"name": "StatefulPartitionedCall/sequential_4/mobilenetv2_1.00_224/block_3_project/Conv2D_weights", "shape": [1, 1, 144, 32], "dtype": "float32"}, {"name": "StatefulPartitionedCall/sequential_4/mobilenetv2_1.00_224/block_15_depthwise/depthwise_weights", "shape": [3, 3, 960, 1], "dtype": "float32"}, {"name": "StatefulPartitionedCall/sequential_4/mobilenetv2_1.00_224/block_3_project/Conv2D_bn_offset", "shape": [32], "dtype": "float32"}, {"name": "StatefulPartitionedCall/sequential_4/mobilenetv2_1.00_224/block_4_expand/Conv2D_weights", "shape": [1, 1, 32, 192], "dtype": "float32"}, {"name": "StatefulPartitionedCall/sequential_4/mobilenetv2_1.00_224/block_4_expand/Conv2D_bn_offset", "shape": [192], "dtype": "float32"}, {"name": "StatefulPartitionedCall/sequential_4/mobilenetv2_1.00_224/block_15_depthwise/depthwise_bn_offset", "shape": [960], "dtype": "float32"}, {"name": "StatefulPartitionedCall/sequential_4/mobilenetv2_1.00_224/block_4_depthwise/depthwise_weights", "shape": [3, 3, 192, 1], "dtype": "float32"}, {"name": "StatefulPartitionedCall/sequential_4/mobilenetv2_1.00_224/block_4_depthwise/depthwise_bn_offset", "shape": [192], "dtype": "float32"}, {"name": "StatefulPartitionedCall/sequential_4/mobilenetv2_1.00_224/block_4_project/Conv2D_weights", "shape": [1, 1, 192, 32], "dtype": "float32"}, {"name": "StatefulPartitionedCall/sequential_4/mobilenetv2_1.00_224/block_4_project/Conv2D_bn_offset", "shape": [32], "dtype": "float32"}, {"name": "StatefulPartitionedCall/sequential_4/mobilenetv2_1.00_224/block_5_expand/Conv2D_weights", "shape": [1, 1, 32, 192], "dtype": "float32"}, {"name": "StatefulPartitionedCall/sequential_4/mobilenetv2_1.00_224/block_5_expand/Conv2D_bn_offset", "shape": [192], "dtype": "float32"}, {"name": "StatefulPartitionedCall/sequential_4/mobilenetv2_1.00_224/block_15_project/Conv2D_weights", "shape": [1, 1, 960, 160], "dtype": "float32"}, {"name": "StatefulPartitionedCall/sequential_4/mobilenetv2_1.00_224/block_5_depthwise/depthwise_weights", "shape": [3, 3, 192, 1], "dtype": "float32"}, {"name": "StatefulPartitionedCall/sequential_4/mobilenetv2_1.00_224/block_5_depthwise/depthwise_bn_offset", "shape": [192], "dtype": "float32"}, {"name": "StatefulPartitionedCall/sequential_4/mobilenetv2_1.00_224/block_5_project/Conv2D_weights", "shape": [1, 1, 192, 32], "dtype": "float32"}, {"name": "StatefulPartitionedCall/sequential_4/mobilenetv2_1.00_224/block_5_project/Conv2D_bn_offset", "shape": [32], "dtype": "float32"}, {"name": "StatefulPartitionedCall/sequential_4/mobilenetv2_1.00_224/block_6_expand/Conv2D_weights", "shape": [1, 1, 32, 192], "dtype": "float32"}, {"name": "StatefulPartitionedCall/sequential_4/mobilenetv2_1.00_224/block_15_project/Conv2D_bn_offset", "shape": [160], "dtype": "float32"}, {"name": "StatefulPartitionedCall/sequential_4/mobilenetv2_1.00_224/block_6_expand/Conv2D_bn_offset", "shape": [192], "dtype": "float32"}, {"name": "StatefulPartitionedCall/sequential_4/mobilenetv2_1.00_224/block_6_depthwise/depthwise_weights", "shape": [3, 3, 192, 1], "dtype": "float32"}, {"name": "StatefulPartitionedCall/sequential_4/mobilenetv2_1.00_224/block_6_depthwise/depthwise_bn_offset", "shape": [192], "dtype": "float32"}, {"name": "StatefulPartitionedCall/sequential_4/mobilenetv2_1.00_224/block_6_project/Conv2D_weights", "shape": [1, 1, 192, 64], "dtype": "float32"}, {"name": "StatefulPartitionedCall/sequential_4/mobilenetv2_1.00_224/block_6_project/Conv2D_bn_offset", "shape": [64], "dtype": "float32"}, {"name": "StatefulPartitionedCall/sequential_4/mobilenetv2_1.00_224/block_7_expand/Conv2D_weights", "shape": [1, 1, 64, 384], "dtype": "float32"}, {"name": "StatefulPartitionedCall/sequential_4/mobilenetv2_1.00_224/block_16_expand/Conv2D_weights", "shape": [1, 1, 160, 960], "dtype": "float32"}, {"name": "StatefulPartitionedCall/sequential_4/mobilenetv2_1.00_224/block_7_expand/Conv2D_bn_offset", "shape": [384], "dtype": "float32"}, {"name": "StatefulPartitionedCall/sequential_4/mobilenetv2_1.00_224/block_7_depthwise/depthwise_weights", "shape": [3, 3, 384, 1], "dtype": "float32"}, {"name": "StatefulPartitionedCall/sequential_4/mobilenetv2_1.00_224/block_7_depthwise/depthwise_bn_offset", "shape": [384], "dtype": "float32"}, {"name": "StatefulPartitionedCall/sequential_4/mobilenetv2_1.00_224/block_7_project/Conv2D_weights", "shape": [1, 1, 384, 64], "dtype": "float32"}, {"name": "StatefulPartitionedCall/sequential_4/mobilenetv2_1.00_224/block_16_expand/Conv2D_bn_offset", "shape": [960], "dtype": "float32"}, {"name": "StatefulPartitionedCall/sequential_4/mobilenetv2_1.00_224/block_7_project/Conv2D_bn_offset", "shape": [64], "dtype": "float32"}, {"name": "StatefulPartitionedCall/sequential_4/mobilenetv2_1.00_224/block_8_expand/Conv2D_weights", "shape": [1, 1, 64, 384], "dtype": "float32"}, {"name": "StatefulPartitionedCall/sequential_4/mobilenetv2_1.00_224/block_8_expand/Conv2D_bn_offset", "shape": [384], "dtype": "float32"}, {"name": "StatefulPartitionedCall/sequential_4/mobilenetv2_1.00_224/block_8_depthwise/depthwise_weights", "shape": [3, 3, 384, 1], "dtype": "float32"}, {"name": "StatefulPartitionedCall/sequential_4/mobilenetv2_1.00_224/block_8_depthwise/depthwise_bn_offset", "shape": [384], "dtype": "float32"}, {"name": "StatefulPartitionedCall/sequential_4/mobilenetv2_1.00_224/block_8_project/Conv2D_weights", "shape": [1, 1, 384, 64], "dtype": "float32"}, {"name": "StatefulPartitionedCall/sequential_4/mobilenetv2_1.00_224/block_16_depthwise/depthwise_weights", "shape": [3, 3, 960, 1], "dtype": "float32"}, {"name": "StatefulPartitionedCall/sequential_4/mobilenetv2_1.00_224/block_8_project/Conv2D_bn_offset", "shape": [64], "dtype": "float32"}, {"name": "StatefulPartitionedCall/sequential_4/mobilenetv2_1.00_224/block_9_expand/Conv2D_weights", "shape": [1, 1, 64, 384], "dtype": "float32"}, {"name": "StatefulPartitionedCall/sequential_4/mobilenetv2_1.00_224/block_9_expand/Conv2D_bn_offset", "shape": [384], "dtype": "float32"}, {"name": "StatefulPartitionedCall/sequential_4/mobilenetv2_1.00_224/block_16_depthwise/depthwise_bn_offset", "shape": [960], "dtype": "float32"}, {"name": "StatefulPartitionedCall/sequential_4/mobilenetv2_1.00_224/block_9_depthwise/depthwise_weights", "shape": [3, 3, 384, 1], "dtype": "float32"}, {"name": "StatefulPartitionedCall/sequential_4/mobilenetv2_1.00_224/block_9_depthwise/depthwise_bn_offset", "shape": [384], "dtype": "float32"}, {"name": "StatefulPartitionedCall/sequential_4/mobilenetv2_1.00_224/block_9_project/Conv2D_weights", "shape": [1, 1, 384, 64], "dtype": "float32"}, {"name": "StatefulPartitionedCall/sequential_4/mobilenetv2_1.00_224/block_9_project/Conv2D_bn_offset", "shape": [64], "dtype": "float32"}, {"name": "StatefulPartitionedCall/sequential_4/mobilenetv2_1.00_224/block_10_expand/Conv2D_weights", "shape": [1, 1, 64, 384], "dtype": "float32"}, {"name": "StatefulPartitionedCall/sequential_4/mobilenetv2_1.00_224/block_10_expand/Conv2D_bn_offset", "shape": [384], "dtype": "float32"}, {"name": "StatefulPartitionedCall/sequential_4/mobilenetv2_1.00_224/block_16_project/Conv2D_weights", "shape": [1, 1, 960, 320], "dtype": "float32"}, {"name": "StatefulPartitionedCall/sequential_4/mobilenetv2_1.00_224/block_10_depthwise/depthwise_weights", "shape": [3, 3, 384, 1], "dtype": "float32"}, {"name": "StatefulPartitionedCall/sequential_4/mobilenetv2_1.00_224/block_10_depthwise/depthwise_bn_offset", "shape": [384], "dtype": "float32"}, {"name": "StatefulPartitionedCall/sequential_4/mobilenetv2_1.00_224/block_10_project/Conv2D_weights", "shape": [1, 1, 384, 96], "dtype": "float32"}, {"name": "StatefulPartitionedCall/sequential_4/mobilenetv2_1.00_224/block_10_project/Conv2D_bn_offset", "shape": [96], "dtype": "float32"}, {"name": "StatefulPartitionedCall/sequential_4/mobilenetv2_1.00_224/block_11_expand/Conv2D_weights", "shape": [1, 1, 96, 576], "dtype": "float32"}, {"name": "StatefulPartitionedCall/sequential_4/mobilenetv2_1.00_224/block_16_project/Conv2D_bn_offset", "shape": [320], "dtype": "float32"}, {"name": "StatefulPartitionedCall/sequential_4/mobilenetv2_1.00_224/block_11_expand/Conv2D_bn_offset", "shape": [576], "dtype": "float32"}, {"name": "StatefulPartitionedCall/sequential_4/mobilenetv2_1.00_224/block_11_depthwise/depthwise_weights", "shape": [3, 3, 576, 1], "dtype": "float32"}, {"name": "StatefulPartitionedCall/sequential_4/mobilenetv2_1.00_224/block_11_depthwise/depthwise_bn_offset", "shape": [576], "dtype": "float32"}, {"name": "StatefulPartitionedCall/sequential_4/mobilenetv2_1.00_224/block_11_project/Conv2D_weights", "shape": [1, 1, 576, 96], "dtype": "float32"}, {"name": "StatefulPartitionedCall/sequential_4/mobilenetv2_1.00_224/Conv_1/Conv2D_weights", "shape": [1, 1, 320, 1280], "dtype": "float32"}, {"name": "StatefulPartitionedCall/sequential_4/mobilenetv2_1.00_224/block_11_project/Conv2D_bn_offset", "shape": [96], "dtype": "float32"}, {"name": "StatefulPartitionedCall/sequential_4/mobilenetv2_1.00_224/block_12_expand/Conv2D_weights", "shape": [1, 1, 96, 576], "dtype": "float32"}, {"name": "StatefulPartitionedCall/sequential_4/mobilenetv2_1.00_224/block_12_expand/Conv2D_bn_offset", "shape": [576], "dtype": "float32"}, {"name": "StatefulPartitionedCall/sequential_4/mobilenetv2_1.00_224/Conv_1/Conv2D_bn_offset", "shape": [1280], "dtype": "float32"}, {"name": "StatefulPartitionedCall/sequential_4/mobilenetv2_1.00_224/block_12_depthwise/depthwise_weights", "shape": [3, 3, 576, 1], "dtype": "float32"}, {"name": "StatefulPartitionedCall/sequential_4/mobilenetv2_1.00_224/block_12_depthwise/depthwise_bn_offset", "shape": [576], "dtype": "float32"}, {"name": "StatefulPartitionedCall/sequential_4/mobilenetv2_1.00_224/block_12_project/Conv2D_weights", "shape": [1, 1, 576, 96], "dtype": "float32"}, {"name": "StatefulPartitionedCall/sequential_4/mobilenetv2_1.00_224/block_12_project/Conv2D_bn_offset", "shape": [96], "dtype": "float32"}, {"name": "StatefulPartitionedCall/sequential_4/mobilenetv2_1.00_224/block_13_expand/Conv2D_weights", "shape": [1, 1, 96, 576], "dtype": "float32"}, {"name": "StatefulPartitionedCall/sequential_4/mobilenetv2_1.00_224/block_13_expand/Conv2D_bn_offset", "shape": [576], "dtype": "float32"}, {"name": "StatefulPartitionedCall/sequential_4/mobilenetv2_1.00_224/block_13_depthwise/depthwise_weights", "shape": [3, 3, 576, 1], "dtype": "float32"}, {"name": "StatefulPartitionedCall/sequential_4/mobilenetv2_1.00_224/block_13_depthwise/depthwise_bn_offset", "shape": [576], "dtype": "float32"}, {"name": "StatefulPartitionedCall/sequential_4/mobilenetv2_1.00_224/block_13_project/Conv2D_weights", "shape": [1, 1, 576, 160], "dtype": "float32"}, {"name": "StatefulPartitionedCall/sequential_4/mobilenetv2_1.00_224/block_13_project/Conv2D_bn_offset", "shape": [160], "dtype": "float32"}, {"name": "StatefulPartitionedCall/sequential_4/mobilenetv2_1.00_224/block_14_expand/Conv2D_weights", "shape": [1, 1, 160, 960], "dtype": "float32"}, {"name": "StatefulPartitionedCall/sequential_4/mobilenetv2_1.00_224/block_14_expand/Conv2D_bn_offset", "shape": [960], "dtype": "float32"}, {"name": "StatefulPartitionedCall/sequential_4/mobilenetv2_1.00_224/block_14_depthwise/depthwise_weights", "shape": [3, 3, 960, 1], "dtype": "float32"}, {"name": "StatefulPartitionedCall/sequential_4/mobilenetv2_1.00_224/block_14_depthwise/depthwise_bn_offset", "shape": [960], "dtype": "float32"}]}]}